Autoencoder/best_model.pth (torch, 838818 bytes, 31 tensors)

weight f4 [32, 1, 3, 3]
0	0x3e7020e0	0.23450041
1	0x3db1ec06	0.08687596
2	0xbe5e0878	-0.21682918
3	0x3e13d330	0.1443603
4	0xbdba0e2b	-0.090847336
5	0x3c2cde6d	0.010551077
6	0x3e9fc4a3	0.3120471
7	0xbdcc3ebb	-0.099729024
8	0xbe1515c7	-0.14559089
9	0x3d5edd18	0.05441007
10	0x3e177257	0.14789711
11	0xbd9952de	-0.07486509
12	0x3e3269c7	0.17423163
13	0xbe9f31d2	-0.31092697
14	0xbc2e2c92	-0.010630744
15	0x3dc8a1b3	0.09796467
16	0xbeb0a00a	-0.344971
17	0x3da559e4	0.08073786
18	0x3e2792e3	0.16364627
19	0x3d955fd9	0.07293672
20	0x3e47af66	0.19500503
21	0xbd8f4e66	-0.06997375
22	0x3e23eac5	0.16007526
23	0xbc92baa2	-0.01791126
24	0x3d795487	0.060871627
25	0xbeae901d	-0.34094325
26	0x3db68209	0.08911521
27	0x3e00bbd4	0.1257165
28	0xbdf3ed29	-0.11910469
29	0x3e1a584c	0.15072745
30	0xbdeaa898	-0.11457938
31	0x3e5a6149	0.21326174
32	0xbcf6c055	-0.030121008
33	0x3daaaac8	0.08333355
34	0x3de2f9bd	0.1108279
35	0xbcfc3657	-0.03078763
36	0xbe6c5f48	-0.23083222
37	0x3d9215a7	0.07133036
38	0xbead9906	-0.3390581
39	0xbdf794f8	-0.120889604
40	0xbe210d9d	-0.1572785
41	0x3e956a88	0.2918284
42	0x3bbd1f38	0.005771544
43	0x3d866cc2	0.06563713
44	0xbdecce45	-0.1156278
45	0xbe5d7f90	-0.21630692
46	0xbe1259e6	-0.14292106
47	0xbd90b559	-0.07065839
48	0x3dc54088	0.09631449
49	0x3d9fa8f3	0.077958964
50	0xbd25736e	-0.040393285
51	0xbe3401d2	-0.1757882
52	0xbc87b182	-0.016564135
53	0x3e390c58	0.18071115
54	0xbd860dd7	-0.065456085
55	0xbc739428	-0.014866866
56	0xbd417b0b	-0.047236484
57	0x3ddbb9cd	0.10728798
58	0xbe5bef0f	-0.21477912
59	0x3e2d705b	0.16937391
60	0x3cedf2b2	0.02904639
61	0x3d8aea7c	0.067830056
62	0x3e1a0fb8	0.15045059
63	0xbe6abd09	-0.22923674
64	0x3e4e75bc	0.201621
65	0x3e4ab621	0.19796039
66	0x3d919621	0.07108713
67	0xbe80a134	-0.25122988
68	0xbe902e09	-0.28160122
69	0x3ebd9799	0.37029722
70	0xbe300719	-0.17190208
71	0xbda5c828	-0.080948174
72	0x3b2e5297	0.002659952
73	0xbea64474	-0.324741
74	0xbe8c3554	-0.27384436
75	0x3dc4037c	0.09570977
76	0xbe1aeb04	-0.15128714
77	0xbeb71124	-0.35755265
78	0x3e1a3913	0.15060835
79	0xbd776944	-0.060403123
80	0xbe2114f5	-0.1573065
81	0xbe3683a9	-0.17823662
82	0x3e681b9b	0.2266678
83	0xbdc35170	-0.09537017
84	0x3d1998cb	0.03749923
85	0x3eb90422	0.36135966
86	0xbdf44fe8	-0.119293034
87	0xbd8af94e	-0.06785832
88	0x3d7b56df	0.061362144
89	0xbe5f12af	-0.21784471
90	0x3e8b6929	0.27228668
91	0x3e85c1df	0.26124474
92	0xbdf9c5e1	-0.121959455
93	0xbe5c2a21	-0.21500446
94	0x3e5cc10f	0.21558021
95	0xbddfa778	-0.10920614
96	0xbdf4fe20	-0.11962533
97	0xbd719934	-0.058983997
98	0x3e1f2178	0.15540111
99	0x3e1c2fc7	0.152526
100	0xbec9769f	-0.39348313
101	0x3c38f847	0.011289663
102	0x3e7c240e	0.24623129
103	0x3d00d5bb	0.03145383
104	0x3d9bd8d7	0.07609718
105	0xbea0d908	-0.31415582
106	0x3d6eef96	0.058333956
107	0xbd19db65	-0.037562747
108	0x3d22644f	0.039646443
109	0x3e8c6498	0.27420497
110	0xbc48020c	-0.012207519
111	0x3ed1baca	0.4096282
112	0x3d047ec5	0.03234746
113	0x3e519a70	0.2046907
114	0xbe1c1880	-0.15243721
115	0xbdc913a9	-0.09818203
116	0x3e51e69c	0.20498127
117	0x3c23e3c2	0.010003032
118	0xbe9dd161	-0.30823806
119	0x3e12f011	0.1434939
120	0x3df73210	0.120700955
121	0xbe395287	-0.18097888
122	0x3e075292	0.13215092
123	0xbe8f0983	-0.27936944
124	0x3db81aed	0.08989511
125	0x3dd382b6	0.103276655
126	0x3e900c8d	0.28134575
127	0xbe6428bb	-0.22281162
128	0x3de49500	0.11161232
129	0xbe96b517	-0.29435036
130	0xbe79f8b3	-0.24411277
131	0x3e73765c	0.2377562
132	0xbd0d31ac	-0.0344712
133	0xbde7ac43	-0.11312153
134	0xbea9e73d	-0.33184233
135	0xbbf85949	-0.007579003
136	0xbe1cc5fc	-0.153099
137	0xbe961994	-0.2931639
138	0x3ef60bbc	0.48055828
139	0x3e799bb8	0.24375808
140	0xbd925505	-0.071451224
141	0xbd89a1c8	-0.067203104
142	0xbc4c37cf	-0.012464478
143	0x3dd69237	0.10477107
144	0xbe7c428a	-0.24634758
145	0xbe2064cb	-0.1566345
146	0xbed6ae27	-0.41929743
147	0xbd597e6e	-0.05309909
148	0xbdb1df6d	-0.08685193
149	0x3d4070f4	0.04698272
150	0xbe4695b1	-0.1939304
151	0xbd678770	-0.056525648
152	0xbe35f441	-0.17768957
153	0xbd5995fa	-0.053121544
154	0xbea9ef55	-0.33190408
155	0xbde3e414	-0.11127487
156	0x3e38d1da	0.18048802
157	0x3d80e720	0.062940836
158	0xbd56d9d8	-0.052453846
159	0x3c6387bb	0.013887341
160	0x3eb97307	0.3622057
161	0xbea7020e	-0.32618755
162	0x3ead69e2	0.33869845
163	0x3d4c3b2a	0.04986111
164	0xbe636ade	-0.22208735
165	0x3e811fd8	0.25219607
166	0x3e9be7dc	0.30450332
167	0x3e132aef	0.14371847
168	0xbe9d4787	-0.30718634
169	0xbe74ba6a	-0.23899236
170	0xbe051d9e	-0.1299958
171	0xbe8338a5	-0.25629154
172	0x3d80d7ec	0.06291184
173	0xbd9e42de	-0.07727598
174	0x3bb3db93	0.005488822
175	0x3e9a3984	0.30122006
176	0x3ea94565	0.33060756
177	0x3d0b6cfd	0.034039486
178	0x3df3aeb2	0.11898555
179	0xbd68b893	-0.05681665
180	0x3dc174b0	0.094460845
181	0xbd9d15f2	-0.07670201
182	0x3bb6eb31	0.005582236
183	0x3d0beac1	0.034159426
184	0xbdea72b5	-0.1144766
185	0x3d389cac	0.04507129
186	0xbea75fa5	-0.32690158
187	0xbe6cdcdf	-0.2313113
188	0xbdc4323d	-0.09579895
189	0x3d8006ab	0.06251272
190	0xbcba4b03	-0.022740846
191	0xbe991821	-0.2990122
192	0xbdef575b	-0.116865836
193	0xbe855420	-0.26040745
194	0xbe198255	-0.14991124
195	0x3eabf44c	0.3358482
196	0x3e617e5d	0.2202086
197	0x3cea84b1	0.028627725
198	0xbcdf8b9f	-0.027288256
199	0xbe4a031f	-0.19727753
200	0xbcb78b4a	-0.022405285
201	0xbd9e3330	-0.07724607
202	0x3ed53132	0.41639096
203	0xbe110c3a	-0.1416482
204	0xbdb31c8c	-0.08745679
205	0x3e161356	0.14655814
206	0x3dce68fa	0.100786164
207	0xbe8cc8a9	-0.27496842
208	0xbdd2fc70	-0.10302055
209	0x3d8913a1	0.06693197
210	0x3e3aeacf	0.18253635
211	0x3b5fd4ce	0.003415394
212	0xbd683daf	-0.05669945
213	0xbd23a9a9	-0.039956722
214	0x3e06061b	0.13088267
215	0x3e320948	0.17386353
216	0xbe7d1b35	-0.2471741
217	0xbeb5ecf7	-0.35532352
218	0xbbc13084	-0.005895676
219	0x3e3e8df8	0.18608844
220	0xbeaf8197	-0.34278557
221	0x3ded8ac6	0.115987346
222	0x3e6f1296	0.23346934
223	0x3e36d306	0.17853937
224	0x3e973eb7	0.29540035
225	0x3e83bc5a	0.25729638
226	0x3d152efe	0.03642177
227	0x3e44ded7	0.19225632
228	0x3d27e79b	0.04099236
229	0x3e0c3f61	0.13696052
230	0x3e2126c0	0.15737438
231	0x3ebda73f	0.3704166
232	0x3d230a39	0.03980467
233	0x3e972bab	0.29525504
234	0x3e3dd9b3	0.18540077
235	0x3dbb487e	0.09144686
236	0x3dbe8482	0.093026176
237	0xbea5de2c	-0.32396066
238	0x3d397d03	0.045285236
239	0xbc834705	-0.016025076
240	0x3cdb840c	0.026796363
241	0x3e95cb88	0.29256845
242	0xbe701632	-0.23445967
243	0x3ea312b2	0.318502
244	0xbdb38b37	-0.087667875
245	0x3d8fd98f	0.07023918
246	0x3e0e1e92	0.13878849
247	0xbc5483c4	-0.0129708685
248	0xbd5c1f61	-0.053740863
249	0xbe2e2547	-0.17006408
250	0x3e545dca	0.20738903
251	0xbe4f0432	-0.20216444
252	0xbe01c505	-0.12672813
253	0x3e2173dd	0.15766855
254	0x3d3f9ec7	0.04678228
255	0x3bd1c29d	0.0064013735

bias f4 [32]
0	0x3e789326	0.24274883
1	0x3e5e139d	0.2168717
2	0x3e1543a5	0.14576586
3	0xbe45a50e	-0.19301245
4	0x3e8e802c	0.27832162
5	0xbe86dd1c	-0.26340568
6	0xbe7b0a0e	-0.24515554
7	0xbe320a2a	-0.1738669
8	0x3e7206b4	0.2363537
9	0xbe143c4e	-0.1447613
10	0x3e841b27	0.25801966
11	0xbe4c603e	-0.19958588
12	0xbd0754a9	-0.033039723
13	0xbe572fa9	-0.21014275
14	0x3ea1291d	0.3147668
15	0xbe78c9c8	-0.24295723
16	0xbe211b94	-0.15733176
17	0xbe0c8cef	-0.13725637
18	0x3e9782ac	0.29591882
19	0x3e351470	0.17683578
20	0x3e7dbc12	0.24778774
21	0xbcc118b1	-0.023571344
22	0x3e60dc84	0.2195912
23	0x3e0d5252	0.13800934
24	0xbc27fa86	-0.010252601
25	0xbd2b63c1	-0.04184318
26	0x3aa64954	0.0012686648
27	0xbd084c64	-0.033275977
28	0x3d93d6ef	0.0721873
29	0x3e849d6d	0.25901356
30	0xbe3ac6bd	-0.18239875
31	0x3e349275	0.17633994

weight f4 [32]
0	0x3f85572f	1.0417231
1	0x3f85af7a	1.0444176
2	0x3f77719a	0.9665772
3	0x3f8e5c1a	1.1121857
4	0x3f879108	1.0591135
5	0x3f87c240	1.0606155
6	0x3f7881b6	0.97072923
7	0x3f8725a1	1.0558358
8	0x3f762ba7	0.9616036
9	0x3f7d04bc	0.9883535
10	0x3f8777b7	1.0583409
11	0x3f742514	0.95369077
12	0x3f86e105	1.053742
13	0x3f86d8dd	1.0534931
14	0x3f72893e	0.94740665
15	0x3f9046b9	1.1271583
16	0x3f887648	1.0661097
17	0x3f823cea	1.017484
18	0x3f843d23	1.0331157
19	0x3f85ec8f	1.0462817
20	0x3f864994	1.0491204
21	0x3f829c21	1.0203897
22	0x3f890271	1.070387
23	0x3f7b9fb4	0.9829056
24	0x3f76b096	0.963632
25	0x3f88ab77	1.0677327
26	0x3f7e6d37	0.993854
27	0x3f7a51b7	0.97780937
28	0x3f814957	1.0100507
29	0x3f8630f5	1.048369
30	0x3f89589f	1.073017
31	0x3f8410f0	1.0317669

bias f4 [32]
0	0x3d0f3c32	0.034969516
1	0x3d577dc0	0.05261016
2	0xbd0a70cf	-0.03379899
3	0x3df2b7cf	0.11851465
4	0x3d84b34f	0.06479513
5	0x3d675ae6	0.056483172
6	0xbcc81a38	-0.024426565
7	0x3d6115c8	0.054952413
8	0xbd1cba64	-0.038263693
9	0xbca1afb7	-0.019737108
10	0x3d404478	0.046940297
11	0xbd2cb459	-0.04216418
12	0x3d59c0ff	0.05316257
13	0x3d2ed3c6	0.04268243
14	0xbd49fd64	-0.049313918
15	0x3dfeb464	0.124367505
16	0x3d76b2c5	0.06022908
17	0x3c556e6b	0.013026814
18	0x3cf35598	0.0297039
19	0x3d394160	0.045228362
20	0x3d51c819	0.05121622
21	0x3c67c0d8	0.014145099
22	0x3d889315	0.06668679
23	0xbafc5888	-0.0019252459
24	0xbd055ced	-0.032559324
25	0x3d9af7a1	0.07566763
26	0x3c5d2882	0.013498427
27	0x3bdac6d5	0.0066765347
28	0x3c02f4f4	0.007992972
29	0x3d450dba	0.048108794
30	0x3d6f806c	0.058472082
31	0x3d064c12	0.03278739

running_mean f4 [32]
0	0x3ebbc412	0.36673027
1	0x3df1bd61	0.11803699
2	0x3ea0d3f2	0.314117
3	0x3c5130f9	0.012768024
4	0xbaca0326	-0.0015412315
5	0xbed9b5ec	-0.42521608
6	0xbe18fb11	-0.14939524
7	0xbe8852c2	-0.2662564
8	0xbea95639	-0.33073595
9	0xbe1004f2	-0.14064386
10	0x3ecf93e1	0.4054251
11	0xbe93f404	-0.28897107
12	0x3ee27d21	0.4423609
13	0xbe997e15	-0.29979005
14	0xbbd60044	-0.0065307934
15	0xbe00b02c	-0.12567204
16	0xbf5d7d8d	-0.865197
17	0xbe8b4371	-0.2719989
18	0x3ecb0b0d	0.3965687
19	0x3ed87e9b	0.42284092
20	0xbdd36a5d	-0.103230216
21	0xbe081252	-0.13288239
22	0x3e8f3748	0.27971864
23	0x3e3a0068	0.18164217
24	0x3cab706b	0.020927629
25	0x3f4303de	0.76177776
26	0x3daff626	0.08591871
27	0x3d9cd30d	0.07657442
28	0x3cd4faa0	0.025998414
29	0x3f378a24	0.7169516
30	0xbeb43906	-0.35199755
31	0x3f418392	0.75591385

running_var f4 [32]
0	0x3c8786ec	0.016543828
1	0x3c260b69	0.010134556
2	0x3cd73ec9	0.026275055
3	0x3d19379d	0.037406553
4	0x3d8e6b1b	0.069540225
5	0x3cc3f550	0.023920685
6	0x3c0e70d2	0.008693891
7	0x3c20623f	0.009789049
8	0x3e92a42e	0.28640884
9	0x3ab012a4	0.001343329
10	0x3ca965bb	0.020678392
11	0x3c042752	0.008066015
12	0x3e4c7b11	0.19968821
13	0x3c0b637e	0.0085076075
14	0x3dbedefa	0.09319873
15	0x3c7ca228	0.01541952
16	0x3ee07826	0.43841666
17	0x3c98ba35	0.018643478
18	0x3c59ea6e	0.013300521
19	0x3d6391ac	0.055558845
20	0x3de07af7	0.10960954
21	0x3c6e1d81	0.0145334015
22	0x3b95c74a	0.0045708762
23	0x3b4f1abf	0.0031601635
24	0x3bdacb35	0.006677056
25	0x3f1092e0	0.56474113
26	0x3befeaa5	0.007321673
27	0x3c47d763	0.012197348
28	0x3b2f0058	0.0026703086
29	0x3e3edcb3	0.18638878
30	0x3cd9876b	0.02655383
31	0x3e97f164	0.29676354

weight f4 [64, 32, 3, 3]
0	0x3cd27f88	0.025695577
1	0x3ca3246d	0.01991483
2	0x3bac941e	0.0052666804
3	0xbbb5c28c	-0.0055468734
4	0xbcc83f40	-0.024444222
5	0x3d12f450	0.035877526
6	0xb92f1c54	-0.00016699854
7	0xbc342aee	-0.010996563
8	0x3d332874	0.04373975
9	0x3ca472ad	0.020074213
10	0xbc51ba3f	-0.012800752
11	0x3cf0a3ea	0.029375035
12	0xbd4a50b9	-0.04939339
13	0x3cf9512e	0.030434217
14	0x3d65c858	0.056099266
15	0xbd63a960	-0.05558145
16	0xbd098aca	-0.033579625
17	0x3d859004	0.065216094
18	0xbc730162	-0.014831873
19	0x3d9d30d4	0.07675329
20	0x3cc6fe69	0.024291234
21	0x3d473707	0.048636463
22	0x3d108adb	0.035288673
23	0x3d2d25a7	0.042272236
24	0xbc72debd	-0.014823613
25	0xba51932e	-0.0007994649
26	0xbc8ad948	-0.01694931
27	0xbcef9eae	-0.029250469
28	0xbc7527dc	-0.0149631165
29	0x3d32174c	0.04347925
30	0x3d724cee	0.059155397
31	0xbc11abbc	-0.008891042
32	0x3cfa6dcc	0.030569933
33	0x3d39340f	0.045215663
34	0x3d5a181d	0.053245652
35	0xbcf9e292	-0.030503545
36	0x3c86140a	0.016366977
37	0xbd6da088	-0.058014423
38	0xb8eab818	-0.000111922796
39	0x3c883f50	0.016631752
40	0x3b0c7a4a	0.0021435195
41	0x3c2418c1	0.010015667
42	0x3d2bea6b	0.041971605
43	0xbd65d463	-0.05611075
44	0xbcc9a855	-0.0246164
45	0x3bc988d6	0.0061503453
46	0xbd2ed038	-0.04267904
47	0xbc547cf9	-0.012969249
48	0xbd78afe2	-0.06071461
49	0x3d254636	0.04035016
50	0x3d366799	0.044532392
51	0xbca19fe4	-0.019729562
52	0xbd49ac87	-0.0492368
53	0x3d360467	0.044437792
54	0xbc8d8057	-0.017273111
55	0xbc29e5c5	-0.010369723
56	0x3cc15dd1	0.023604305
57	0x3c7cb8f0	0.015424952
58	0xbbd37ca9	-0.0064540696
59	0xbd6bf841	-0.0576098
60	0x3d6d6372	0.057956167
61	0xbd283ee7	-0.041075613
62	0xbd14b536	-0.03630563
63	0xbd1a62b8	-0.0376918
64	0x3c5b3728	0.0133798495
65	0x3acd699d	0.0015671734
66	0x3d1f5088	0.03889516
67	0x3d3339f8	0.043756455
68	0x3d5ba28b	0.05362181
69	0x3c4dbd81	0.012557388
70	0x3ca1e9d8	0.019764826
71	0x3cbc48bc	0.022983901
72	0xbcd1bae3	-0.02560181
73	0xbd68e435	-0.05685826
74	0xbca4d775	-0.02012227
75	0x3d076e01	0.033063892
76	0x3a3b072b	0.0007134552
77	0xbd2d16d1	-0.042258088
78	0x3c84957d	0.016184563
79	0x3b24eef7	0.0025166848
80	0x3d1a2751	0.03763515
81	0xbcf531f4	-0.029931046
82	0x3d12cada	0.035837986
83	0x3c9166f8	0.017749295
84	0x3d0708a5	0.03296723
85	0xbd5cda52	-0.053919144
86	0x3b2b3e0d	0.0026129514
87	0x3d0602b4	0.03271742
88	0xbd1cae34	-0.03825207
89	0x3bce287e	0.006291448
90	0xbd579892	-0.052635737
91	0xbcffe314	-0.031236209
92	0x3d46325a	0.048387863
93	0x3c347739	0.011014753
94	0x3d07ddcc	0.033170506
95	0x3cdadf93	0.026717937
96	0xbbd36ccd	-0.006452179
97	0xbd430004	-0.047607437
98	0xbce4499b	-0.02786713
99	0xbd0fff5d	-0.035155643
100	0x3c69f035	0.014278461
101	0x3cd3faa8	0.025876358
102	0x3bc7f646	0.006102356
103	0xbd3e2e1b	-0.04643069
104	0xbc32facf	-0.010924055
105	0xbc1179fb	-0.00887918
106	0xbd3d3391	-0.046191756
107	0xbc7fa675	-0.015603651
108	0xbc86d7cf	-0.016460327
109	0x3b640fcf	0.0034799462
110	0x3cf960c2	0.030441646
111	0xbcdb61b3	-0.026779985
112	0x3c2fb454	0.010724146
113	0xbbdcff19	-0.006744277
114	0x3d03556f	0.032063898
115	0xbb3efaaf	-0.0029141118
116	0x3d024062	0.03179968
117	0xbcc03623	-0.023463314
118	0xbd0ffb8a	-0.035151996
119	0xbd110616	-0.035406195
120	0xbbb6beee	-0.00557696
121	0xbd5d6f62	-0.0540613
122	0x3d760745	0.060065527
123	0xbd9cb6dd	-0.07652066
124	0xbd3318d7	-0.04372486
125	0x3d4073ab	0.04698531
126	0xbcdac7a8	-0.026706532
127	0xbd58e0fb	-0.052948933
128	0x3d0c25b9	0.034215663
129	0x3d1df10c	0.03855996
130	0xbc446ea5	-0.01198927
131	0xbc118b12	-0.008883255
132	0xbaa24f7d	-0.0012383308
133	0xbc9edccd	-0.019392395
134	0xbc50a484	-0.012734536
135	0xbd1e4f43	-0.03864981
136	0x3cf49b6b	0.029859265
137	0x3be74023	0.0070572062
138	0xbcfecbcc	-0.031103037
139	0x3cddbfb4	0.02706895
140	0xbca95230	-0.020669073
141	0x399e3431	0.00030174994
142	0x3cc8be63	0.024504846
143	0x3d30a690	0.043127596
144	0x3cb8ded0	0.022567183
145	0xbd0963be	-0.033542387
146	0x3b016d89	0.0019749126
147	0x3d5981da	0.05310235
148	0xbd5b3e40	-0.053526163
149	0xbc5c5486	-0.013447886
150	0xbcc628a8	-0.024189308
151	0xbd1370c7	-0.035996225
152	0x3bd668fb	0.0065432764
153	0xbd1ecd0d	-0.03876977
154	0xbd21ddbb	-0.0395181
155	0x3c165ba1	0.0091771195
156	0xb9d01c96	-0.0003969415
157	0x3cbeba14	0.023282088
158	0xbbbcb850	-0.0057592764
159	0x3beea347	0.007282648
160	0x3cccaf3a	0.024985898
161	0x3d1ebf85	0.038756866
162	0xbd79d637	-0.060995307
163	0x3ca44fce	0.020057585
164	0xbc2e5a95	-0.010641714
165	0xbd2de384	-0.042453304
166	0x3bab3446	0.0052247373
167	0x3cb2715d	0.021782571
168	0x3d10260c	0.035192534
169	0xbc7b2e8c	-0.015330922
170	0xbd5740b6	-0.052551948
171	0x3ce92a47	0.028462542
172	0x3d224b37	0.03962251
173	0xbcd82ba1	-0.026387991
174	0xbc90e188	-0.017685667
175	0xbd05ffdb	-0.032714706
176	0xbd130fce	-0.035903744
177	0x3d139219	0.036028
178	0x3d162d85	0.036664505
179	0xbcfed2d5	-0.031106392
180	0x3d351194	0.044206217
181	0xbcbfda03	-0.023419386
182	0x3d11ebc5	0.035625238
183	0x3d190ab1	0.03736371
184	0xbc1ecc75	-0.009692301
185	0xbca3978c	-0.019969724
186	0xbd6dcc58	-0.058056206
187	0x3d6ccfcb	0.057815354
188	0xbc8df22b	-0.017327389
189	0xbd77df55	-0.06051572
190	0x3a878d21	0.0010341742
191	0x3c9b2d44	0.018942483
192	0xbd43980f	-0.047752436
193	0x3d3e52da	0.046465732
194	0xbd2b4481	-0.041813377
195	0x3d06aa54	0.03287728
196	0x3d581b02	0.05276013
197	0x3b92cf0c	0.0044802483
198	0x3d571d5a	0.052518226
199	0x3d130abf	0.03589892
200	0x3d1adfb1	0.037810985
201	0x3c9de5fa	0.0192747
202	0xbd71e001	-0.059051517
203	0xbd344fe0	-0.044021487
204	0xb86572c0	-5.4704724e-05
205	0xbb1eb311	-0.0024215619
206	0xbc0d71ca	-0.008633086
207	0x3d2ee981	0.042703155
208	0x3bb7b7b3	0.0056066155
209	0x3cdc6e0b	0.026907941
210	0xbce8f334	-0.02843628
211	0xbd31af82	-0.043380268
212	0x3c9da84e	0.019245293
213	0x3d359e09	0.044340167
214	0xbd2fc435	-0.042911727
215	0x3cc8c6b5	0.024508813
216	0x3ba9a50f	0.005177147
217	0xbd4e07d4	-0.050300434
218	0xbd138d7b	-0.0360236
219	0xbd249318	-0.040179342
220	0xbc21f540	-0.009885132
221	0xbd7457b0	-0.059653938
222	0xbd7abfca	-0.06121806
223	0x3c84bbeb	0.016202888
224	0xbd3ee37b	-0.04660366
225	0x3d518eee	0.0511617
226	0x3cc4225d	0.023942167
227	0xbd18768a	-0.037222423
228	0x3cfeaac0	0.03108728
229	0x3b34b2de	0.0027572433
230	0xbc6536b3	-0.013990092
231	0x3c7c47fa	0.01539802
232	0x3ca92f49	0.02065243
233	0x3caa4f64	0.02078981
234	0xbb70b8f4	-0.0036731334
235	0xbc3932c4	-0.011303607
236	0x3c29c24b	0.010361264
237	0x3d677a5e	0.056513183
238	0xbcbf0046	-0.02331556
239	0xbd7d566a	-0.06184999
240	0x3d51d78e	0.05123096
241	0x3cc7a76a	0.024371821
242	0x3b413380	0.002948016
243	0x3d28e32b	0.04123227
244	0x3d2f2d02	0.042767532
245	0xbd04dcb4	-0.03243704
246	0x3d14a5c0	0.036290884
247	0xbd1a2d47	-0.037640836
248	0x3bc8e4e5	0.006130802
249	0xbd3818e3	-0.04494561
250	0xbc6fde70	-0.014640436
251	0x3c82af2c	0.01595267
252	0xbd47ce40	-0.04878068
253	0xbc864712	-0.01639131
254	0x3cc308ad	0.023807848
255	0x3d34f2a3	0.04417671

bias f4 [64]
0	0x3c57b871	0.013166533
1	0xbd3834a4	-0.044972077
2	0xbd13eb1c	-0.03611289
3	0xbd5ad7ba	-0.05342839
4	0x3c099d61	0.008399338
5	0x3ca0d29f	0.019631682
6	0xbc03cb9c	-0.00804415
7	0xbcdb58be	-0.026775714
8	0xbcfe810d	-0.031067396
9	0x3b0dbbca	0.0021626824
10	0xbb936597	-0.0044981944
11	0x3d66341b	0.056202035
12	0x3cde0f5c	0.027106933
13	0x3d0d8682	0.034552105
14	0xbcdfca30	-0.02731809
15	0xbd6b17e6	-0.05739584
16	0x3d03b786	0.032157443
17	0xbd0553c2	-0.03255058
18	0xbd429eaa	-0.047514595
19	0xbbf1b315	-0.0073760846
20	0x3d56fa79	0.052484963
21	0xbc196697	-0.009362838
22	0xbac202e8	-0.0014801892
23	0xbd1540a0	-0.036438584
24	0xbd265070	-0.040604055
25	0xbafad473	-0.0019136801
26	0x3d34888f	0.044075545
27	0xbd1702f1	-0.03686804
28	0xbd742542	-0.059605844
29	0xbd30100f	-0.042984065
30	0xbcfd7a23	-0.030942028
31	0x3d378c73	0.044811677
32	0x3d10c172	0.035340734
33	0x3d4cd4be	0.050007574
34	0xbd69d7af	-0.057090458
35	0x3ce4d937	0.027935607
36	0x3c051dca	0.008124778
37	0x3d1970d7	0.037461128
38	0xbd5a7da8	-0.05334249
39	0xbd029f29	-0.03189007
40	0xb9e95e25	-0.00044511366
41	0xbbe940b4	-0.007118309
42	0x3d246023	0.040130746
43	0xbcbe94c5	-0.023264298
44	0xbcd2fff5	-0.025756815
45	0x3d0f9e12	0.035062857
46	0xbd37e6b9	-0.04489777
47	0xbd53fd77	-0.051755395
48	0xbc0e6a25	-0.008692299
49	0x3d6ce7d7	0.057838287
50	0x3d36f608	0.044668227
51	0x3a7ca7c0	0.0009638034
52	0xbced1350	-0.028939873
53	0x3ce4e0fd	0.027939314
54	0x3d5673b3	0.052356433
55	0x3c9b9c9a	0.018995572
56	0x3b70651d	0.0036681362
57	0xbb2cddfd	-0.0026377433
58	0x3d209bca	0.039211072
59	0x3d14ad1d	0.036297906
60	0x3d068174	0.0328383
61	0x3bdfead4	0.0068334136
62	0xbc7dca65	-0.015490149
63	0x3c1b7d5d	0.009490338

weight f4 [64]
0	0x3f7a0c9c	0.9767549
1	0x3f7d3858	0.989141
2	0x3f7a9329	0.978808
3	0x3f7f1324	0.9963858
4	0x3f7afc57	0.9804129
5	0x3f82f570	1.0231152
6	0x3f7f5588	0.99739885
7	0x3f8033f9	1.0015861
8	0x3f82e277	1.0225362
9	0x3f80206d	1.0009896
10	0x3f8519ae	1.0398462
11	0x3f8038c7	1.0017327
12	0x3f813533	1.009436
13	0x3f7cfd0e	0.9882363
14	0x3f7f9d74	0.9984963
15	0x3f808227	1.0039719
16	0x3f7e9e27	0.9946007
17	0x3f7aa096	0.97901285
18	0x3f7f4751	0.99718195
19	0x3f7f67fe	0.99768054
20	0x3f7e6659	0.9937492
21	0x3f80afd8	1.0053663
22	0x3f7bb6e1	0.98325926
23	0x3f7dfd1b	0.99214333
24	0x3f7dae7c	0.9909437
25	0x3f7d4429	0.9893213
26	0x3f8071e9	1.0034763
27	0x3f7ce24c	0.987828
28	0x3f83a616	1.028506
29	0x3f7d99be	0.99062717
30	0x3f7c9b5b	0.98674554
31	0x3f7eb71d	0.9949816
32	0x3f7bb3b5	0.98321086
33	0x3f816c6d	1.0111214
34	0x3f7c541f	0.9856586
35	0x3f8147d4	1.0100045
36	0x3f803d0e	1.0018632
37	0x3f809109	1.0044261
38	0x3f7f7457	0.99786896
39	0x3f7d8eca	0.99046004
40	0x3f801f52	1.0009558
41	0x3f807932	1.0036986
42	0x3f751183	0.95729846
43	0x3f81a00d	1.0126969
44	0x3f814a1b	1.010074
45	0x3f7b1eba	0.9809376
46	0x3f807532	1.0035765
47	0x3f7be237	0.9839205
48	0x3f7ed9ac	0.9955089
49	0x3f7f968f	0.9983911
50	0x3f7f7ca1	0.99799544
51	0x3f7f0d36	0.99629533
52	0x3f75da19	0.96035916
53	0x3f7c5018	0.98559713
54	0x3f7e49cf	0.9933137
55	0x3f7d0995	0.98842746
56	0x3f81223d	1.0088574
57	0x3f806eed	1.0033852
58	0x3f7e1c9c	0.99262404
59	0x3f7f001d	0.9960955
60	0x3f79f91c	0.97645736
61	0x3f7ac903	0.9796297
62	0x3f7d1bd3	0.9887058
63	0x3f7d545e	0.9895686

bias f4 [64]
0	0xbd1b5f5d	-0.037932742
1	0xbbfce156	-0.007717292
2	0xbca5782c	-0.020198904
3	0xbc9aa605	-0.018877992
4	0xbc2c6f2c	-0.010524552
5	0x3c4b5028	0.012409247
6	0xbb906998	-0.004407119
7	0xbae69f43	-0.0017595071
8	0x3c0d183f	0.008611738
9	0x3ae6e8c0	0.0017616972
10	0xbc9935e6	-0.018702459
11	0x3a8dddc3	0.0010823536
12	0x3b3de592	0.0028975946
13	0xbcb23383	-0.021753078
14	0x3b6a0e08	0.003571393
15	0x3abd1e69	0.0014428619
16	0xb9772b95	-0.00023571991
17	0xbce5cb8c	-0.02805116
18	0xbbc4ed75	-0.0060097524
19	0x3a8cefa9	0.0010752577
20	0xbb1b5ed5	-0.0023707647
21	0x3a5a2d2b	0.00083227706
22	0xbc9978c7	-0.018734349
23	0xbc500862	-0.012697311
24	0xbbb53101	-0.0055295234
25	0xbc68d8d1	-0.014211849
26	0x3b6e8e9f	0.0036400927
27	0xbb17c4e4	-0.0023158127
28	0x3bbdadaa	0.0057885246
29	0xbc8137bf	-0.015773652
30	0xbca170ae	-0.01970705
31	0xbc1c0f55	-0.00952514
32	0xbc7eae04	-0.015544418
33	0x3b435abb	0.0029808718
34	0xbcd8b3a3	-0.026452845
35	0x3c1e6f15	0.009670039
36	0xbc6c5bf5	-0.014426221
37	0x3b8e1651	0.0043361564
38	0xbc090773	-0.008363592
39	0xbc41b93d	-0.011823949
40	0x3b6f7a1e	0.0036541293
41	0x3bc05322	0.005869285
42	0xbcd3d0ea	-0.025856454
43	0x3b0a45d4	0.002109875
44	0x3c13b247	0.009014673
45	0xbc6f9d4d	-0.014624906
46	0x3b298da6	0.0025871783
47	0xbc967233	-0.018365001
48	0xbc511f47	-0.012763805
49	0x3a3bc6e4	0.0007163121
50	0xbbca62fc	-0.0061763506
51	0xbc097910	-0.00839068
52	0xbd0c91a2	-0.034318574
53	0xbcaecb83	-0.021337276
54	0xbc54554c	-0.0129597895
55	0xbbd5e389	-0.0065273684
56	0x3b4d8e34	0.0031365277
57	0xbcfc41a7	-0.030793024
58	0xbc18ab9b	-0.009318258
59	0xbb4fd5a1	-0.0031713026
60	0xbcb684bc	-0.02228009
61	0xbc05c854	-0.008165438
62	0xbc6f7c1a	-0.01461699
63	0xbc97d0f1	-0.018532248

running_mean f4 [64]
0	0x3ed7cdd5	0.42149225
1	0xbed3047c	-0.4121436
2	0x3e8f37eb	0.2797235
3	0x3f19dfef	0.6010732
4	0xbe13e793	-0.14443807
5	0xbeb923c8	-0.3616011
6	0x3d11262f	0.035436805
7	0xbe42ee64	-0.19036251
8	0xbd17df32	-0.03707809
9	0x3e791944	0.24326044
10	0x3b873d4d	0.0041271807
11	0xbe2b2349	-0.16712679
12	0x3eb580f1	0.35449937
13	0x3d32a647	0.043615606
14	0xbe39ba0a	-0.18137375
15	0xbf204c6b	-0.62616605
16	0xbd07a1a1	-0.033113126
17	0x3d0f2f3e	0.034957163
18	0x3ed7f05e	0.42175573
19	0xbe388ab7	-0.18021666
20	0x3e430b0e	0.19047186
21	0x3da1bec3	0.07897713
22	0x3d463194	0.048387125
23	0xbf4210d6	-0.7580694
24	0x3ee5913b	0.44837365
25	0xbda03cea	-0.078241184
26	0xbe058de8	-0.13042414
27	0x3f2cad94	0.6745236
28	0x3e18b43c	0.14912504
29	0x3dd3086d	0.103043415
30	0xbea4cfe8	-0.3218987
31	0x3f62a30f	0.8853006
32	0xbe849f64	-0.25902855
33	0x3cde60ab	0.027145704
34	0xbe57c92b	-0.21072833
35	0xbf4b1b76	-0.7933878
36	0xbdfed44b	-0.124428354
37	0x3e9e73c1	0.30947688
38	0x3f5f6481	0.8726273
39	0x3d047da2	0.032346375
40	0xbef5a7bf	-0.47979543
41	0xbe22208e	-0.15832731
42	0xbec9909a	-0.39368135
43	0x3e7bc6dc	0.24587578
44	0x3eaa69f9	0.33283976
45	0x3df6d262	0.12051846
46	0xbe822824	-0.2542125
47	0xbe451b7c	-0.19248766
48	0xbe926a10	-0.28596544
49	0x3ee1ce69	0.4410279
50	0x3dd233af	0.10263764
51	0xbd893549	-0.066996165
52	0xbe00cf32	-0.12579039
53	0xbe920879	-0.2852209
54	0x3cbe1c29	0.023206787
55	0x3f5032ec	0.813277
56	0x3e42c197	0.19019161
57	0x3d69746d	0.056995798
58	0xbea6c8db	-0.32575116
59	0x3edecaa2	0.43513972
60	0xbd04d9c1	-0.03243423
61	0xbd2d571b	-0.0423194
62	0xbe733fe5	-0.23754843
63	0xbea696eb	-0.32537016

running_var f4 [64]
0	0x3e46ce84	0.19414717
1	0x3fc6ea8c	1.5540328
2	0x3f882228	1.0635424
3	0x3e4dfa1d	0.20114942
4	0x3f86803a	1.0507882
5	0x3e48174e	0.1954014
6	0x3e1aa4b0	0.15101886
7	0x3d4e9b4f	0.050441083
8	0x3e8c630a	0.2741931
9	0x3e6fdc23	0.23423819
10	0x3dd6c6b9	0.10487122
11	0x3ebf87cd	0.37408295
12	0x3e946eff	0.28990933
13	0x3e396346	0.18104276
14	0x3fba7c8b	1.4569257
15	0x3e582f31	0.21111752
16	0x3f98f7b4	1.1950593
17	0x3dbebf4c	0.09313831
18	0x3f05b5e5	0.52230674
19	0x3e5f494a	0.21805301
20	0x3df182dc	0.117925376
21	0x3da17a57	0.078846626
22	0x3e9495b7	0.29020473
23	0x3e864aa0	0.2622881
24	0x3e8abb6e	0.27096123
25	0x3da7ab3a	0.08186956
26	0x3f9c0172	1.2187941
27	0x3ee4b491	0.4466901
28	0x3e796c6a	0.24357763
29	0x3d6993f1	0.057025854
30	0x3d561127	0.05226245
31	0x3e2ed4ad	0.17073317
32	0x3ea3fa01	0.32026675
33	0x3e2672d8	0.16254747
34	0x3df69dcc	0.12041816
35	0x3e5330c3	0.2062407
36	0x3e112e07	0.14177714
37	0x3e95b0bd	0.29236403
38	0x3ea10dd7	0.3145587
39	0x3e5b1af5	0.21397002
40	0x3fd09978	1.6296835
41	0x3fb55006	1.4165046
42	0x3f703a72	0.9383918
43	0x3ee46cfd	0.446144
44	0x3f74ac31	0.95575243
45	0x3d6dd32f	0.05806273
46	0x3ed64c92	0.41855294
47	0x3e111d4d	0.14171334
48	0x3ed3c1bc	0.41358745
49	0x3f785357	0.97002167
50	0x3f035716	0.5130476
51	0x3f0d374a	0.5516249
52	0x3f05be90	0.522439
53	0x3e3f0f50	0.18658185
54	0x3e322fcf	0.1740105
55	0x3d5f30c5	0.05448987
56	0x3f2345c3	0.6377832
57	0x3dbf250f	0.0933324
58	0x3dd2134d	0.102575876
59	0x3e5a1768	0.21297991
60	0x3f7bfced	0.9843281
61	0x3fa57d1e	1.2928808
62	0x3dd36003	0.10321047
63	0x3df039aa	0.117297485

weight f4 [128, 64, 3, 3]
0	0xbc3179c0	-0.01083225
1	0xbd159e1f	-0.03652775
2	0x3c4f09ee	0.012636645
3	0x3d261e7d	0.04055642
4	0xbc73ae62	-0.014873119
5	0x3cd93ada	0.02651732
6	0x3d0149f7	0.03156468
7	0x3c7ef832	0.015562104
8	0x3cc69403	0.0242405
9	0x3ca3f0da	0.020012308
10	0xbc8de3ba	-0.017320503
11	0xbc289bbb	-0.010291035
12	0x3b9357d7	0.0044965553
13	0xbc9d40ad	-0.019195879
14	0xb92230ac	-0.00015467656
15	0xba7bcb55	-0.0009605189
16	0xbc9110c0	-0.017708182
17	0x3c93e0d4	0.018051542
18	0x3d15db2b	0.036585968
19	0xbce09280	-0.027413607
20	0x3cf6148a	0.03003909
21	0x3c932218	0.017960593
22	0xbcf2d868	-0.029644206
23	0xbcd64fe3	-0.02616114
24	0xbc8e268e	-0.017352369
25	0x3caa54fd	0.020792479
26	0xbc786ada	-0.015162194
27	0xbbdd4759	-0.00675289
28	0xbd206111	-0.03915507
29	0xbd0a3e98	-0.0337511
30	0x3d1c73b4	0.03819628
31	0x3d04a4c4	0.032383695
32	0x3ce5d838	0.028057203
33	0x3cfbdd14	0.030745067
34	0x3d2a0a66	0.041513823
35	0x3d1379fb	0.036005
36	0x3c389f6e	0.01126848
37	0xbc523475	-0.01282989
38	0xbce25f31	-0.027633281
39	0x3cb71f5e	0.022353824
40	0xbd427714	-0.047476843
41	0x3c4c7241	0.012478412
42	0x3974b758	0.00023337954
43	0x3c35b960	0.01109156
44	0xbd06c445	-0.03290202
45	0x3cd77dde	0.026305135
46	0x3cae86e9	0.021304565
47	0x3c8234b8	0.015894279
48	0x3ba106ae	0.0049141264
49	0xbcbfcd5b	-0.02341335
50	0x3cbcfb75	0.023069123
51	0xbc634dfa	-0.0138735715
52	0xbc8929f4	-0.016743638
53	0xbd03909c	-0.032120332
54	0x3d022627	0.031774666
55	0xbd06860f	-0.032842692
56	0x3d07969e	0.033102624
57	0xbc36b5b3	-0.011151719
58	0xbc092a21	-0.008371861
59	0xbc2a8487	-0.010407574
60	0xbd3f30fd	-0.04667758
61	0xbc5d91dc	-0.013523545
62	0xbbdac473	-0.0066762506
63	0xbc5c0329	-0.013428488
64	0x3cc69b9a	0.024244118
65	0x3d2769bc	0.04087232
66	0xbd2babb1	-0.041911785
67	0x3c8c4edf	0.017127452
68	0x3d0c9104	0.034317985
69	0xbc852de1	-0.016257228
70	0xbcdfee44	-0.027335294
71	0xbb81d199	-0.0039617536
72	0xbc072745	-0.008249109
73	0x3c65c9c1	0.014025153
74	0x3b8dd3c7	0.0043282243
75	0x3c2c5496	0.010518214
76	0x3c7c8fa0	0.015415102
77	0xbcfcfe2c	-0.030882917
78	0x3a2ba385	0.00065474986
79	0xbc6304ef	-0.013856157
80	0xbc5d90fd	-0.013523337
81	0x3b668f9d	0.0035180815
82	0xbbdb477a	-0.0066918703
83	0xbbc78462	-0.0060887793
84	0x3b387199	0.0028143881
85	0xbd3d0bd1	-0.046153847
86	0xbd422e47	-0.047407415
87	0xbd0cfb38	-0.03441927
88	0xbd150b0d	-0.036387492
89	0xbc5d93d9	-0.013524019
90	0xbd0e91fa	-0.034807183
91	0x3d84275e	0.06452821
92	0x3c33e6ee	0.010980351
93	0x3cd5933f	0.026071189
94	0x3d91c001	0.071167
95	0x3da91891	0.08256639
96	0xbc311e4f	-0.010810449
97	0x3cd240df	0.025665699
98	0xbd280ba9	-0.041026745
99	0xbc337296	-0.010952612
100	0x3c8ad618	0.016947791
101	0x3bb477da	0.0055074515
102	0xbb121dee	-0.0022295672
103	0xbc487240	-0.012234271
104	0xbc6ad072	-0.014331924
105	0xbd3cfac2	-0.04613758
106	0x3c3bc74d	0.011461091
107	0xbab8209e	-0.0014047807
108	0xbcf3cd99	-0.029761123
109	0xbc8e15a5	-0.017344305
110	0xbc7d6abe	-0.015467344
111	0x3c818480	0.015810251
112	0x3c691af2	0.014227616
113	0x3b7d3079	0.0038633628
114	0x3c023229	0.007946529
115	0x3d4a8943	0.04944731
116	0x3c80b627	0.015711857
117	0xbd3cc0db	-0.04608236
118	0xbbf6ba57	-0.0075295377
119	0x3c0e8958	0.0086997375
120	0xbd0cff11	-0.034422938
121	0xbc8639fb	-0.01638507
122	0xbcaf5d62	-0.021406833
123	0x3c709729	0.014684477
124	0xbd075829	-0.03304306
125	0x3bf6a621	0.0075271283
126	0x3d2f8eb8	0.042860717
127	0x3cb2a142	0.02180541
128	0x3d4060aa	0.046967186
129	0xba99d790	-0.0011737216
130	0x3ce28641	0.027651908
131	0x3d0f8ea3	0.03504814
132	0x3d1c3b1d	0.038142312
133	0x3d083e9a	0.033262827
134	0xbc93e3f4	-0.018053032
135	0xbca0d0f8	-0.019630894
136	0xbcb35838	-0.021892652
137	0xbd534fb6	-0.05158969
138	0xbd4b5e74	-0.049650624
139	0xbc114e96	-0.008868834
140	0x3ca85c53	0.020551836
141	0xbc0dd54a	-0.008656809
142	0x3c122898	0.008920811
143	0xbca36155	-0.019943872
144	0x3c12a7a2	0.0089511
145	0x3c823567	0.015894605
146	0x3d0c3d3c	0.034238085
147	0x3ce2ba04	0.02767659
148	0xbc99a227	-0.018754078
149	0x3d09b771	0.03362221
150	0x3d3552ae	0.044268303
151	0xbbe6bd16	-0.007041584
152	0xbcbe03b7	-0.02319513
153	0xbc907648	-0.017634526
154	0xbc43a3a5	-0.011940871
155	0x39957ac3	0.0002851096
156	0xbc4c7fc5	-0.0124816345
157	0xbc64c311	-0.013962523
158	0xbc0e919f	-0.008701711
159	0x3cb4ce39	0.02207099
160	0x3b0e3107	0.0021696703
161	0xbd1986ec	-0.037482187
162	0xbc9c400b	-0.019073507
163	0xbb2c985e	-0.0026335935
164	0x3cf01c2a	0.029310305
165	0x3cc99ecf	0.024611859
166	0xbca91eaf	-0.020644514
167	0x3d3ec829	0.046577606
168	0x3c62f017	0.013851187
169	0xbd17af91	-0.037032668
170	0xbb96c4f6	-0.0046011163
171	0xbca965dd	-0.020678455
172	0x39a625a8	0.00031690043
173	0xbd0292f1	-0.031878415
174	0xbc92ad3c	-0.01790487
175	0xbce0a307	-0.027421487
176	0xbcd30a52	-0.025761757
177	0xbb3d7317	-0.002890771
178	0xbd24ac9a	-0.04020367
179	0xbc97bbe2	-0.018522207
180	0x3cb906fa	0.022586334
181	0x3d583581	0.0527854
182	0x3c9ead03	0.019369608
183	0x3d05db9f	0.03268015
184	0xbcc451ab	-0.023964724
185	0xbcca2075	-0.02467368
186	0xbd0fc64b	-0.035101216
187	0x3d116ce7	0.035504248
188	0x3d2d5147	0.04231384
189	0x3bcef26d	0.0063155205
190	0x3d63fa57	0.055658665
191	0x3982872c	0.00024896243
192	0x3c0ff6d6	0.008786878
193	0x3d6b76e5	0.057486434
194	0x3d1b30da	0.037888385
195	0xbcf5318e	-0.029930856
196	0xbb183803	-0.0023226745
197	0xbd0a1336	-0.033709727
198	0x3be0ea20	0.0068638474
199	0x3c052684	0.008126859
200	0xbc01b062	-0.007915588
201	0x3d341f64	0.04397525
202	0x3d1ee041	0.038788084
203	0xbc7c3c5b	-0.015395249
204	0xbcd227e0	-0.02565378
205	0xbccdc31c	-0.02511745
206	0xbcdc0026	-0.02685554
207	0xbc62071f	-0.013795643
208	0x3cb19f17	0.021682305
209	0xbd295634	-0.041341975
210	0x3d116ddc	0.03550516
211	0xbd21efbf	-0.03953528
212	0x3c9c1386	0.019052278
213	0x37d83215	2.5772528e-05
214	0x3cd0134c	0.025399826
215	0xbcad8209	-0.02118017
216	0x3c614777	0.013749949
217	0x3a9888c4	0.0011637439
218	0xbc6faf49	-0.014629194
219	0x3c98540b	0.018594762
220	0x3d1c1565	0.03810634
221	0x3d33721d	0.04381
222	0x3cbcfc45	0.02306951
223	0x3c9b11e8	0.018929437
224	0x3ca36c54	0.019949116
225	0xbbd1f31a	-0.006407154
226	0x3cdf8c34	0.027288534
227	0xbc4e339d	-0.012585548
228	0xbb83c39a	-0.0040211203
229	0x3d3b5ddf	0.04574382
230	0x3d12bca5	0.035824437
231	0x3d293ec5	0.041319627
232	0xbca31e18	-0.01991181
233	0x3b6fdf31	0.0036601538
234	0x3c8468a1	0.016163172
235	0x3d1d804d	0.038452435
236	0x3c3c8c44	0.011508051
237	0xbcd4b0a4	-0.025963135
238	0xbd123270	-0.035692632
239	0x3c6d03f3	0.014466274
240	0xbc4356bb	-0.011922534
241	0xbd2018e7	-0.03908625
242	0x3d02bd23	0.031918656
243	0xbd0928ff	-0.033486363
244	0xbd240c4f	-0.0400508
245	0x3d34c4ec	0.04413311
246	0xbd521818	-0.05129251
247	0x3c35101c	0.011051204
248	0x3c97eaf1	0.018544646
249	0x3bd7aee2	0.006582127
250	0xbd0b4a85	-0.034006614
251	0xbc5ea335	-0.013588716
252	0xbc2830b9	-0.010265523
253	0x3cce174b	0.025157591
254	0x3cb653f2	0.022256825
255	0xbb3eb59c	-0.0029099947

bias f4 [128]
0	0x3c172c46	0.009226864
1	0x3ca3eb28	0.020009592
2	0x3ce8fae7	0.028439952
3	0x3d1e5ede	0.03866469
4	0xbc655a8c	-0.013998639
5	0xbaa464e8	-0.001254228
6	0xbce12ee8	-0.027488187
7	0x3d29e4aa	0.041477837
8	0x3d10673b	0.0352547
9	0xbc2df706	-0.010617977
10	0x3bbb5b0d	0.005717641
11	0x3c944787	0.018100513
12	0x3ced28f9	0.028950201
13	0x3aa5ba09	0.0012643944
14	0xbc632c54	-0.013865549
15	0x3c8a5be0	0.016889513
16	0x3acf9ef8	0.0015840223
17	0x3c31a2a8	0.010842003
18	0xbd14f96a	-0.036370672
19	0xbc5bab46	-0.013407534
20	0xbcb89f4f	-0.022536902
21	0x3c81c3f6	0.015840512
22	0x3cc201e2	0.023682538
23	0xbb9fa8e7	-0.0048724297
24	0x3ce27f35	0.027648548
25	0xbc05af92	-0.008159535
26	0x3bd51817	0.006503116
27	0xbd26533a	-0.040606715
28	0x3c21e7e7	0.00988195
29	0xbd19169a	-0.03737507
30	0x3c4ac78d	0.012376678
31	0xbbb6b838	-0.00557616
32	0xbd1330b7	-0.03593513
33	0x3c054b60	0.008135647
34	0xbb74741b	-0.003730065
35	0xbc6ea3a3	-0.014565381
36	0x3bd0835a	0.0063633146
37	0x3d004637	0.031316962
38	0xbc743f15	-0.014907618
39	0x3cbb1c4e	0.022840645
40	0x3d0efc55	0.03490861
41	0x3d21e170	0.039521635
42	0x3d01dbe3	0.03170384
43	0x3becb8de	0.0072241863
44	0x3c05adba	0.008159095
45	0x3cc052fd	0.023477072
46	0x3c354076	0.011062732
47	0x3c5cb090	0.01346983
48	0xbd1ddec8	-0.03854254
49	0xbc12eae0	-0.008967131
50	0x3cca25d9	0.02467625
51	0xba223036	-0.00061869936
52	0xbc3d0a2e	-0.011538072
53	0xbc965f67	-0.018356038
54	0xbd0ae14b	-0.033906262
55	0x3c5709e1	0.013124914
56	0x3d277e2a	0.040891804
57	0x3d0a4e41	0.033766035
58	0xbce57177	-0.028008206
59	0x3d188e25	0.037244935
60	0xbceb611a	-0.028732825
61	0x399f79d6	0.00030417618
62	0xbc8e8803	-0.01739884
63	0xb98b5b57	-0.000265802
64	0xbcaa8eda	-0.02082007
65	0x3bf39978	0.0074340664
66	0x3cada81b	0.021198323
67	0x3c7b26a1	0.015329034
68	0xbd103238	-0.035204142
69	0xbd23435e	-0.03985917
70	0xbc54d67c	-0.01299059
71	0x3c51564f	0.012776925
72	0x3d0f9317	0.035052385
73	0x3c3337e8	0.010938622
74	0xbc346e33	-0.011012602
75	0x3d089095	0.03334101
76	0x3cee2543	0.029070502
77	0xbd1e6495	-0.03867014
78	0x3c550660	0.013002008
79	0x3bb23be7	0.00543927
80	0xbcb17109	-0.021660345
81	0xbd26f4b3	-0.040760707
82	0xbceb4feb	-0.028724631
83	0x3cf07d55	0.029356638
84	0xbcb6570e	-0.022258308
85	0xbc06ff58	-0.00823959
86	0x3c58c40d	0.013230336
87	0x3c6779d3	0.014128166
88	0xbd09fbec	-0.033687517
89	0xbd177c5c	-0.036983833
90	0x3b22caff	0.0024840233
91	0xbc88eb4e	-0.016713765
92	0x3d161b0a	0.03664688
93	0x3b6e9216	0.0036402992
94	0x3a5e5671	0.00084815087
95	0xbd259500	-0.0404253
96	0xbba5d3bd	-0.0050606416
97	0x3d28ed64	0.04124202
98	0xbc9f74ef	-0.019464938
99	0xbbdffd03	-0.0068355813
100	0xbceb533f	-0.028726218
101	0xbbfe92d7	-0.0077689695
102	0x3ccb9f00	0.02485609
103	0x3ccd9c60	0.02509898
104	0x3b4c8109	0.003120484
105	0xbbad1033	-0.005281472
106	0x3c0adf19	0.008476042
107	0x3c1384b0	0.009003803
108	0xbd1a039e	-0.037601106
109	0xbb71ec47	-0.0036914514
110	0x3c86d436	0.016458612
111	0x3c95a9bf	0.018269418
112	0xbcb2dcc8	-0.021833792
113	0x3c087338	0.008328252
114	0x3ccdd2bc	0.0251249
115	0x3c06eeb3	0.008235621
116	0xbcd89bcf	-0.026441483
117	0xbd00609a	-0.031342126
118	0xbc92ad63	-0.017904943
119	0xbd215b45	-0.039393682
120	0x3c809416	0.015695613
121	0x3d17919f	0.03700411
122	0xbd0d9781	-0.034568314
123	0x3b4b7af5	0.003104863
124	0xb9ebe7fd	-0.00044995538
125	0xbb0d0396	-0.002151703
126	0x3d284d62	0.041089423
127	0xbd15dce8	-0.036587626

weight f4 [128]
0	0x3f7ca226	0.9868492
1	0x3f8487f7	1.0353993
2	0x3f82bedd	1.0214497
3	0x3f7a4c11	0.9777232
4	0x3f8078b1	1.0036832
5	0x3f789653	0.97104377
6	0x3f82ff0a	1.0234082
7	0x3f739b31	0.9515868
8	0x3f807cdd	1.0038105
9	0x3f8098b7	1.0046605
10	0x3f801c44	1.0008626
11	0x3f7fcd58	0.99922705
12	0x3f801a37	1.0008
13	0x3f80059f	1.0001715
14	0x3f7ff190	0.9997797
15	0x3f7fb5c5	0.99886733
16	0x3f81f418	1.0152617
17	0x3f837b68	1.0272036
18	0x3f7ac649	0.9795881
19	0x3f7a49b5	0.9776872
20	0x3f80475e	1.002178
21	0x3f7dcf37	0.9914431
22	0x3f82ddbd	1.0223919
23	0x3f7b3e49	0.98141915
24	0x3f7c6828	0.9859643
25	0x3f763fa6	0.9619087
26	0x3f82b2d3	1.0210823
27	0x3f7ec6e8	0.99522257
28	0x3f7b0cdb	0.9806649
29	0x3f79df60	0.9760647
30	0x3f7a4c7b	0.9777295
31	0x3f7f861a	0.99814
32	0x3f7d089b	0.98841256
33	0x3f7a7774	0.9783852
34	0x3f82d2d3	1.0220588
35	0x3f80024a	1.0000699
36	0x3f819d43	1.0126117
37	0x3f81f01c	1.01514
38	0x3f802d5c	1.0013843
39	0x3f7f0606	0.99618566
40	0x3f8073a9	1.0035297
41	0x3f82bbff	1.0213622
42	0x3f7d152b	0.98860425
43	0x3f79ea81	0.9762345
44	0x3f7baca2	0.9831029
45	0x3f8035bd	1.00164
46	0x3f7c1f3e	0.9848517
47	0x3f831297	1.0240048
48	0x3f8a2c3b	1.0794748
49	0x3f85300d	1.0405289
50	0x3f7a1542	0.97688687
51	0x3f7f9c19	0.9984756
52	0x3f7ef606	0.9959415
53	0x3f7feef5	0.99973994
54	0x3f768e54	0.96310925
55	0x3f7dc5a1	0.9912968
56	0x3f80efc4	1.0073171
57	0x3f7f8ee9	0.9982744
58	0x3f7d8ee4	0.9904616
59	0x3f831afa	1.0242608
60	0x3f7ac998	0.9796386
61	0x3f75fd28	0.9608941
62	0x3f7d7d47	0.99019283
63	0x3f7c3210	0.9851389
64	0x3f80e8cb	1.0071043
65	0x3f7a4061	0.97754484
66	0x3f7fc345	0.9990733
67	0x3f7fe916	0.99965036
68	0x3f8237e7	1.017331
69	0x3f779210	0.9670725
70	0x3f7d3d0b	0.9892127
71	0x3f7ae21d	0.9800127
72	0x3f7da349	0.9907728
73	0x3f814f57	1.0102338
74	0x3f818ce5	1.0121123
75	0x3f7bd789	0.98375756
76	0x3f821b25	1.0164534
77	0x3f86c506	1.0528877
78	0x3f836b9e	1.0267217
79	0x3f7d2c4f	0.98895735
80	0x3f7dd155	0.9914754
81	0x3f794f09	0.97386223
82	0x3f89ecbf	1.0775374
83	0x3f7e648e	0.99372184
84	0x3f7a860f	0.9786081
85	0x3f802d41	1.001381
86	0x3f7fca48	0.9991803
87	0x3f811d32	1.0087035
88	0x3f828bf0	1.0198956
89	0x3f814653	1.0099586
90	0x3f7bef8e	0.98412406
91	0x3f7a22ec	0.97709537
92	0x3f79661e	0.97421443
93	0x3f85ac7c	1.0443263
94	0x3f788bee	0.97088516
95	0x3f80288a	1.0012372
96	0x3f802f16	1.001437
97	0x3f790a9f	0.9728183
98	0x3f7a0afd	0.97673017
99	0x3f824a8d	1.0179001
100	0x3f807a09	1.0037242
101	0x3f832d56	1.024821
102	0x3f77641f	0.9663715
103	0x3f7adbd1	0.97991663
104	0x3f7db5bb	0.99105424
105	0x3f8256f6	1.0182788
106	0x3f808074	1.0039201
107	0x3f7ca291	0.98685557
108	0x3f7de703	0.9918062
109	0x3f7dfac2	0.9921075
110	0x3f7c68cc	0.9859741
111	0x3f771aa5	0.9652503
112	0x3f808a06	1.0042121
113	0x3f79062a	0.9727503
114	0x3f7f0a85	0.99625427
115	0x3f85025b	1.0391344
116	0x3f7e0d5e	0.99239147
117	0x3f7ad616	0.9798292
118	0x3f7898ce	0.9710816
119	0x3f7ff2bb	0.9997975
120	0x3f75c1c6	0.959988
121	0x3f80a5c9	1.0050594
122	0x3f7cbd86	0.9872669
123	0x3f822efb	1.0170587
124	0x3f836e3b	1.0268015
125	0x3f7ba383	0.98296374
126	0x3f806049	1.0029384
127	0x3f8052a6	1.0025222

bias f4 [128]
0	0xbc8b0840	-0.016971707
1	0x3bec1b58	0.007205408
2	0xbb29cfdc	-0.0025911247
3	0xbc1aa0a8	-0.0094377175
4	0xbceefd58	-0.029173538
5	0xbce03920	-0.02737099
6	0xbbe6e118	-0.0070458762
7	0xbc8fb8f7	-0.017544253
8	0x3b00dbcc	0.001966226
9	0xbc67e554	-0.014153797
10	0xbca6e99a	-0.020375062
11	0xbb4e7423	-0.0031502328
12	0x3b8a2b30	0.004216574
13	0xbcae8310	-0.02130273
14	0xbbdc154b	-0.0067164055
15	0xbb9b8bec	-0.0047469046
16	0xba9b5a8b	-0.0011852545
17	0x3cb873ab	0.022516092
18	0xbd14f4db	-0.036366325
19	0xbc5a8bbf	-0.013338982
20	0xbce7709e	-0.028251942
21	0xbc228006	-0.0099182185
22	0xbce276a7	-0.027644468
23	0xbcc701b0	-0.024292797
24	0xbd11817b	-0.035523873
25	0xbc2786d8	-0.01022502
26	0x3b0b4495	0.0021250595
27	0xbcd28a7b	-0.025700798
28	0xbca3c65e	-0.01999205
29	0xbc8b8548	-0.017031327
30	0xbc79577c	-0.015218612
31	0x3a0a3722	0.00052724977
32	0xbc2c6d8d	-0.010524166
33	0xbca22068	-0.019790843
34	0xbc075f50	-0.00826247
35	0xb9c85203	-0.00038208076
36	0xbc9b7eaa	-0.018981297
37	0xbb936306	-0.0044978885
38	0xbc8a6628	-0.016894415
39	0xbd0b7da1	-0.034055356
40	0xbc94bcf0	-0.018156499
41	0xbc0e0ca9	-0.008670011
42	0xbc6a630e	-0.014305843
43	0xbcdbce3e	-0.026831742
44	0xbc19d3e9	-0.009388902
45	0xbceba5f9	-0.028765665
46	0xbc6ed220	-0.014576465
47	0x3b7d787b	0.0038676548
48	0xbd2ac632	-0.04169292
49	0x3b7f3260	0.0038939938
50	0xbaad58b7	-0.0013225292
51	0xbcaa12ee	-0.02076098
52	0xbb7a7cd1	-0.003822137
53	0xbcc69d3f	-0.024244903
54	0xbce3ec7a	-0.027822722
55	0xbb9d8cc6	-0.0048080413
56	0xbc636fd5	-0.013881643
57	0xbc688a45	-0.014193122
58	0xbc1c4c92	-0.00953974
59	0xbcdb463f	-0.026766894
60	0xbc9bc432	-0.019014452
61	0xbca2d8a9	-0.019878702
62	0xbc855e4c	-0.016280316
63	0xbc510027	-0.012756384
64	0x3a724022	0.0009241124
65	0xbcef5d14	-0.029219188
66	0xbcebd5b6	-0.028788429
67	0x3b8f935e	0.004381581
68	0xbc11546f	-0.008870228
69	0xbca9213d	-0.020645732
70	0xbb41adc9	-0.0029553047
71	0xbc403773	-0.01173197
72	0xbc914c13	-0.01773647
73	0xbc84ac5e	-0.016195472
74	0xbb219157	-0.002465328
75	0xbbf1552a	-0.0073648887
76	0xbd44c6e3	-0.048041236
77	0xbc85c25f	-0.016328035
78	0xbd09cd94	-0.03364332
79	0xbc2ceef0	-0.010555014
80	0xbc59f61e	-0.013303308
81	0xbcec9183	-0.02887798
82	0xbc8a02a0	-0.016846955
83	0xbcaea216	-0.021317523
84	0xbc8adb41	-0.016950252
85	0xbc9fd903	-0.019512659
86	0xbc445b98	-0.011984728
87	0xbca14145	-0.019684443
88	0xbce5e17f	-0.028061626
89	0xbb7a690f	-0.0038209592
90	0xbce4e8e4	-0.027943082
91	0xbce24a3b	-0.027623286
92	0xbcc49c13	-0.024000203
93	0xbd83090f	-0.06398212
94	0xbc55b82b	-0.013044397
95	0xbb6a4444	-0.0035746256
96	0xbc8ca406	-0.017168056
97	0xbcb8edd4	-0.022574343
98	0xbcbd521a	-0.023110438
99	0xbd58478b	-0.052802604
100	0xb9860f7c	-0.00025570008
101	0xbcf0cbbb	-0.029394021
102	0xbc44e250	-0.012016848
103	0xbc2600ab	-0.010131995
104	0xbbabb321	-0.0052398597
105	0x3b9eb6b7	0.0048435587
106	0xbc59ecf1	-0.01330112
107	0xbcd03273	-0.025414681
108	0xbcb05a18	-0.021527335
109	0xbaeee369	-0.0018225732
110	0xbc8ecaaa	-0.017430622
111	0xbcfd14c0	-0.030893683
112	0xbcf25c90	-0.029585153
113	0xbd018483	-0.031620514
114	0xbc3aeb00	-0.011408567
115	0x3d6c59e5	0.057702918
116	0xbc4ef1eb	-0.01263092
117	0xba1a4bd2	-0.0005885932
118	0xbcd175d2	-0.025568876
119	0xbc9816a4	-0.018565483
120	0xbcaf0685	-0.021365413
121	0xbc932592	-0.01796225
122	0xbcaec008	-0.021331802
123	0x3cb20b0d	0.021733785
124	0xbcb28895	-0.021793643
125	0xbc698685	-0.014253263
126	0xbd24cb1d	-0.040232766
127	0xbbde897d	-0.006791292

running_mean f4 [128]
0	0x3c0eb55d	0.008710233
1	0x3e0ab4a4	0.13545471
2	0xbf7e3932	-0.99306023
3	0xbebe1105	-0.3712236
4	0xbdc48bc4	-0.09596971
5	0x3db36806	0.08760075
6	0x3f25dd34	0.64790654
7	0xbea2dc43	-0.3180867
8	0xbf060770	-0.523551
9	0xbe5d80fc	-0.21631235
10	0xbdcc766b	-0.09983524
11	0xbf04a1d0	-0.51809406
12	0xbee2ce58	-0.44298053
13	0x3ef8783e	0.48529238
14	0xbf74e8e9	-0.9566789
15	0xbe87fc61	-0.26559737
16	0xbf52005e	-0.8203181
17	0xbf5aab04	-0.854172
18	0xbe9491fe	-0.29017633
19	0xbf4ad255	-0.7922719
20	0xbdc66d78	-0.09688848
21	0xbe0e73bb	-0.13911335
22	0x3f2a6525	0.66560584
23	0x3ea0f459	0.31436422
24	0x3eb248ee	0.34821266
25	0x3e8f6964	0.28010094
26	0xbdac37af	-0.08409058
27	0x3f2de3af	0.6792554
28	0x3e7bb5dd	0.24581094
29	0x3d28377f	0.04106855
30	0xbdf223c8	-0.11823231
31	0xbe67ff29	-0.2265593
32	0xbe985371	-0.2975116
33	0xbb16be01	-0.0023001435
34	0xbf45412e	-0.7705258
35	0xbebcdca7	-0.36887094
36	0x3e9eb6df	0.30998895
37	0x3dd70588	0.10499102
38	0x3b070452	0.002060194
39	0x3f715401	0.94268805
40	0x3e2689b0	0.16263461
41	0xbd9c3950	-0.07628119
42	0x3e96ff6c	0.29491746
43	0xbba2bffc	-0.004966734
44	0x3ebc9d0e	0.36838573
45	0x3dbd63f3	0.092475794
46	0x3aad126a	0.001320434
47	0xbeb4ffc9	-0.353514
48	0x3e0eb297	0.13935314
49	0x3e70649a	0.23475876
50	0x3f0e8761	0.5567532
51	0xbf327d03	-0.69722
52	0xbe5b5df6	-0.21422562
53	0x3e5b4b7b	0.21415512
54	0x3ebe8bb3	0.37215957
55	0xbdf3be7e	-0.11901568
56	0x3e8d2fc6	0.2757551
57	0x3e39204b	0.18078725
58	0x3f5abf5e	0.85448253
59	0x3e980ea4	0.2969867
60	0x3e7f70a7	0.24945317
61	0x3f148b3a	0.5802494
62	0xbbd2cdb4	-0.006433213
63	0x3d58ee54	0.052961662
64	0x3c7011e5	0.014652704
65	0x3f0aeff0	0.54272366
66	0xbea50483	-0.32230005
67	0xbee3fa34	-0.44526827
68	0x3eb90234	0.36134493
69	0x3d897171	0.0671109
70	0x3ebf062e	0.37309402
71	0xbe156052	-0.14587525
72	0x3c446836	0.011987736
73	0xbedb2c55	-0.4280726
74	0xbf034d4e	-0.5128983
75	0x3ee10913	0.43952236
76	0x3e698276	0.22803673
77	0xbd4af6b1	-0.04955167
78	0x3eda4668	0.4263184
79	0x3d961eec	0.07330117
80	0xbd851822	-0.064987436
81	0x3e41c345	0.18922146
82	0xbeeb56ee	-0.4596476
83	0x3e22f906	0.15915307
84	0x3dec9545	0.115519084
85	0xbd8ff094	-0.070283085
86	0x3dd293d0	0.10282099
87	0x3f147cf2	0.5800315
88	0x3d24481d	0.040107835
89	0x3f2224d1	0.6333743
90	0xbe053e13	-0.1301196
91	0x3e979aeb	0.2961038
92	0x3b23dee1	0.0025004672
93	0x3f3fd234	0.7493012
94	0xbdfa79e4	-0.1223028
95	0xbe0c553c	-0.1370439
96	0x3cd0735b	0.02544563
97	0x3dc53521	0.09629274
98	0x3ea723b1	0.32644418
99	0x3e903fb5	0.28173605
100	0xbdfc7a6b	-0.12328037
101	0x3e442825	0.19155939
102	0xbe45e2a7	-0.19324742
103	0xbe329c98	-0.17442548
104	0xbf029c0f	-0.51019377
105	0xbd8e376a	-0.06944163
106	0xbf7040dd	-0.93848974
107	0xbdaac54c	-0.08338413
108	0x3f2255ba	0.6341206
109	0xbef62c9f	-0.48080918
110	0xbe0ecf3b	-0.1394624
111	0x3e00bf44	0.12572962
112	0x3e806697	0.2507827
113	0xbe491adf	-0.19639157
114	0xbe3f5c9f	-0.18687676
115	0xbff0941c	-1.8795199
116	0xbe155eb8	-0.14586914
117	0x3e38d05a	0.1804823
118	0xbf112e08	-0.56710863
119	0xbdb8f5b1	-0.09031237
120	0x3c287635	0.010282089
121	0xbe87d2b3	-0.26527938
122	0x3e7e3429	0.24824585
123	0xbf829914	-1.0202966
124	0xbec89970	-0.39179564
125	0x3e27b379	0.16377057
126	0x3e8a84ae	0.27054352
127	0xbec39dbb	-0.38206276

running_var f4 [128]
0	0x3fa9145d	1.3209339
1	0x3ea00719	0.31255415
2	0x400f8733	2.242627
3	0x3fd6a93d	1.6770397
4	0x3f72b65e	0.9480952
5	0x3ed61943	0.41816148
6	0x3f8d5ff4	1.1044908
7	0x3f85f00b	1.046388
8	0x3eba74f8	0.36417365
9	0x3f3ae32c	0.73002887
10	0x3e578ff3	0.21051006
11	0x3e6123c0	0.21986294
12	0x3ef647f6	0.48101777
13	0x3f3f841d	0.74810964
14	0x3e15c770	0.1462686
15	0x3f821c49	1.0164882
16	0x3eb951d9	0.36195257
17	0x3f2a0dc6	0.66427267
18	0x3e9afb23	0.30269727
19	0x3f1663c9	0.5874601
20	0x3fbb176f	1.4616526
21	0x3ec879b5	0.39155355
22	0x4079e321	3.9044878
23	0x3f3b2a23	0.7311117
24	0x3eaf1494	0.34195387
25	0x3f28d7f6	0.6595453
26	0x3eb1b568	0.34708714
27	0x3eb414a2	0.35171992
28	0x3f5de293	0.8667385
29	0x3fc7a1a9	1.559621
30	0x3f017537	0.5056948
31	0x3ea137dd	0.31487933
32	0x3f33088d	0.6993492
33	0x3e7de983	0.24796109
34	0x3f8839ed	1.0642678
35	0x3ebcd95d	0.36884585
36	0x3f4b5824	0.79431367
37	0x3df582a4	0.11987808
38	0x3e57dc3d	0.21080108
39	0x3e9acacf	0.30232856
40	0x3e01c003	0.12670903
41	0x3f94e000	1.1630859
42	0x3e5d70cd	0.21625061
43	0x3dd98b9e	0.10622333
44	0x3f389c38	0.7211337
45	0x3f10b5b6	0.5652727
46	0x3f1b3e47	0.606419
47	0x3eb3f34e	0.35146564
48	0x3e130bde	0.14359996
49	0x3e95ebef	0.29281566
50	0x3ea2b2e3	0.31777105
51	0x3e349d0e	0.17638037
52	0x3f96d16c	1.178266
53	0x3fd67f81	1.6757661
54	0x3f38f554	0.7224934
55	0x3f41403f	0.75488657
56	0x3ef752b9	0.483053
57	0x3db64793	0.089003704
58	0x3e9d22a4	0.3069049
59	0x3e4549db	0.19266455
60	0x3f211174	0.62917256
61	0x3f55fb1f	0.83586305
62	0x3ef924d9	0.48660925
63	0x3edcaf89	0.43102673
64	0x3e7053f3	0.23469524
65	0x3ef75d98	0.48313594
66	0x3e496e2f	0.19670938
67	0x3eb96270	0.36207914
68	0x3e5414d5	0.20711072
69	0x3e8c4b61	0.2740126
70	0x40c6bdcf	6.21067
71	0x40824753	4.0712066
72	0x3ee6a2b0	0.45045996
73	0x3f899da4	1.0751233
74	0x3e6e1c00	0.23252869
75	0x3f3e6f3d	0.74388486
76	0x3fcc5f2b	1.5966543
77	0x3e8ce9a5	0.27522007
78	0x3e0bb9e6	0.13645133
79	0x3f858847	1.0432214
80	0x3e220639	0.15822686
81	0x3eb43eba	0.35204107
82	0x3e5ef161	0.21771766
83	0x3e6ced8e	0.23137495
84	0x3e5c5a03	0.21518712
85	0x3dfd4b7d	0.12367914
86	0x3e6197a4	0.22030503
87	0x3e614899	0.2200035
88	0x3e59b65e	0.21260974
89	0x3efe7d89	0.4970515
90	0x3dfe8627	0.12427931
91	0x3f928550	1.1446934
92	0x3e89b02b	0.26892218
93	0x3fbf3c41	1.4940263
94	0x3f1c4ebf	0.61057657
95	0x3e33baec	0.17551774
96	0x3e36a76d	0.17837305
97	0x3f1cf388	0.613091
98	0x3e7f8a0f	0.24955009
99	0x3e1bcf49	0.15215792
100	0x3e93bd0b	0.28855166
101	0x3f476c8e	0.77900016
102	0x3fa53648	1.290719
103	0x3f9c206a	1.2197392
104	0x3f43c0ee	0.7646626
105	0x3e4b8826	0.19876155
106	0x3fe14f89	1.7602397
107	0x3f6dcab8	0.9288745
108	0x3f83e881	1.030533
109	0x3f295b3e	0.6615485
110	0x3fe21bd5	1.7664744
111	0x3e269aee	0.16270038
112	0x3ddcdc25	0.10784177
113	0x3f82e9d4	1.0227609
114	0x3f841d04	1.0321355
115	0x3f8c76f7	1.0973805
116	0x3f43005d	0.7617243
117	0x3fb48342	1.4102557
118	0x3f7dacef	0.99092
119	0x3dec55c7	0.11539798
120	0x3fa38844	1.277596
121	0x3f6f3aff	0.93449396
122	0x3fa91439	1.3209296
123	0x3f27b044	0.65503335
124	0x3e664187	0.22485934
125	0x3ec774e5	0.3895637
126	0x3e647a47	0.2231227
127	0x3ebe5ce1	0.37180236
