Autoencoder/model.pth (torch, 748498 bytes, 11 tensors)

weight f4 [32, 1, 3, 3]
000000 82 fb 8c 3e c4 29 2e bd a4 69 d3 bd 6b 8e 4d 3c
       0.27535635 -0.0425203 -0.10322884 0.012546162
000010 f2 e6 11 3e 4b c6 53 be 08 f8 80 bd 5c cb 9b 3e
       0.14248255 -0.20681112 -0.06297308 0.30428588
000020 0e b7 85 be ff c2 4c be 8e ae 98 be 68 51 a7 bd
       -0.26116222 -0.1999626 -0.29820675 -0.08169824
000030 a4 ce 26 3e 8a 99 3f be c5 31 96 be 4a ca 4e 3d
       0.16289765 -0.18710914 -0.29334846 0.050485887
000040 9a 1d b3 3e 48 5b a2 3e 88 d5 96 be 7b 1c 3a 3e
       0.34983522 0.31710267 -0.29459786 0.18174927
000050 9d b7 f8 3d ad 72 2b be a6 6d 84 3e 0e 9a 1b 3d
       0.121443965 -0.16742964 0.25864905 0.037988715
000060 3e f1 a5 3d e5 74 15 be 58 c3 99 3d e6 84 84 3e
       0.08102654 -0.14595373 0.07507962 0.25882643
000070 36 48 26 be e0 8f ba be b3 1b 9d 3c dc da 2c be
       -0.16238484 -0.36437893 0.019178247 -0.16880363
000080 59 de 4c be 4c 3d 55 3e cb eb 01 3d 8f b3 4f 3e
       -0.20006694 0.20824164 0.03171901 0.2028334
000090 5c bb 64 3e 26 88 fb 3d 29 b7 6f be 0a 02 9f be
       0.22337097 0.12281828 -0.23409714 -0.31056243
0000a0 7e 77 0a 3e 35 c0 d9 bd 14 fb 95 bd 9a 3b 12 be
       0.13522145 -0.10632364 -0.0732328 -0.14280549
0000b0 8c bd 3a 3e 28 21 17 bd a8 91 80 be a1 9e b7 3d
       0.18236369 -0.036896855 -0.25111127 0.08965803
0000c0 36 51 86 be ce 0a 0c be a5 2c c9 3a 7c e0 d0 bd
       -0.26233834 -0.13675997 0.0015348388 -0.10199067
0000d0 00 d8 8c ba 08 04 77 be 5e eb 45 3d e2 39 a7 3d
       -0.0010745525 -0.24122632 0.048320167 0.08165337
0000e0 22 9d 11 3d df c9 25 be 78 80 0a 3e 9d e0 42 3e
       0.035550244 -0.16190289 0.1352557 0.19030996
0000f0 0b c8 ef 3d da 9a ae be 3f f5 02 be 15 cb 30 be
       0.11708077 -0.34102517 -0.12788866 -0.1726497
000100 ed 4f 75 3e 8d 43 73 be 14 6d 17 be 54 8e 16 bd
       0.2395627 -0.23756237 -0.14787704 -0.03675683
000110 a0 9e c5 3d 71 f0 a6 3e 2a 4f 8f be 74 b7 89 be
       0.09649396 0.32605317 -0.27990085 -0.26897776
000120 fd a9 ff bd 1b 9d 59 3e fd 68 36 3d b8 02 5a bc
       -0.124835946 0.21251337 0.04453372 -0.013306312
000130 6d 50 3b 3d 6a ec b0 3e 0f ef 97 3e 1d 64 ac 3e
       0.045730997 0.3455537 0.29674575 0.3367013
000140 3d f4 bd 3d 03 e8 1d be 7b 8d aa be 02 74 a2 bd
       0.092751004 -0.15420537 -0.33311066 -0.07932283
000150 10 f4 5c be 03 8a 31 be 8c a4 3b be d0 59 7e 3c
       -0.21577477 -0.17337804 -0.18324488 0.015524343
000160 6c c6 41 3e 2d 24 ad 3e 4b f2 9f 3e f5 8d bc bd
       0.18923348 0.33816662 0.31239542 -0.09206764
000170 c1 6f 82 3e 7c 6d da bd 06 99 16 be 43 a9 c6 bd
       0.25475886 -0.10665414 -0.14706811 -0.09700253
000180 41 60 11 be 46 e0 c0 bd c1 35 37 be 2b d2 a2 be
       -0.14196874 -0.09417777 -0.17891599 -0.3180097
000190 bd b7 10 3c 4f 8f bd 3d 1c d9 71 3e b1 6e 86 bc
       0.008832869 0.092558496 0.23617977 -0.016410204
0001a0 65 76 a2 be 41 85 74 be 3b 02 35 3d ad 46 0e be
       -0.31730953 -0.23878957 0.04419158 -0.13894148
0001b0 96 10 bd be cc 94 9f 3e c7 eb 43 3d d8 4e 92 be
       -0.36926717 0.3116821 0.047832277 -0.28575778
0001c0 b0 6f e4 bd 37 c1 1c 3e 11 fa 63 be c8 12 cc 3a
       -0.11154115 0.1530808 -0.22263362 0.0015569562
0001d0 cb 66 19 3e e9 27 84 3d 95 a8 96 be 60 17 a0 3e
       0.14980619 0.06452925 -0.29425493 0.31267834
0001e0 80 56 9e be 0e c8 07 bb 64 bc 9a be cb 49 e3 3c
       -0.3092537 -0.0020718607 -0.30221856 0.027745148
0001f0 11 7e 65 bd d9 e6 a3 bd 86 fe 51 be d7 01 70 3d
       -0.05602843 -0.08003015 -0.20507249 0.058595505
000200 86 90 60 3e 32 55 d7 bd 67 2c 87 3e 62 02 84 3e
       0.21930131 -0.105142966 0.26401064 0.25783068
000210 6a 3f 22 3e 88 c7 62 be 34 ab 87 3e cb f7 93 be
       0.15844503 -0.22146428 0.26497805 -0.2889999
000220 43 79 d8 bd 58 58 95 be 45 7a a5 be fc 84 9f 3e
       -0.10570004 -0.29168963 -0.32319847 0.31156147
000230 c4 9a 11 3e c0 44 b3 bd 3c 4c 9b 3c bf 64 88 3e
       0.14219195 -0.087533474 0.01895725 0.26639363
000240 20 a2 eb 3d ba 7f 5f 3d 4e 91 87 be 6a 7a 0a be
       0.11505532 0.05456517 -0.26478046 -0.1352326
000250 25 90 9e 3e 8d ea 6c 3c 7e 9f 9e 3e 99 75 e0 3d
       0.3096935 0.014460218 0.30981058 0.1095993
000260 2a ed 8f bd f6 d6 f7 bd c2 ce 8f be 98 a2 49 be
       -0.07027657 -0.121015474 -0.2808743 -0.19690931
000270 f6 d0 eb bd 96 e2 43 be c3 3a 5a be 96 d9 8e 3c
       -0.115144655 -0.19129404 -0.21311478 0.017437737
000280 2c 86 78 3e 76 4f ef bd 73 6f cd 3d a2 e7 1b 3e
       0.24269933 -0.11685078 0.10031023 0.1522508
000290 c0 d0 97 3e f1 2d cf bd 2e a9 66 be 2e 62 94 be
       0.2965145 -0.101161845 -0.22525474 -0.28981155
0002a0 d8 79 a3 3d e4 7b 5c 3e eb 1e 87 3e 2b cb b4 3e
       0.07982224 0.21531636 0.26390776 0.35311255
0002b0 29 a0 1e be 74 b5 7b be 17 e4 a4 3c 4f 21 4d bd
       -0.15490784 -0.24580938 0.020128293 -0.050080594
0002c0 75 6b 5d 3e 0e e1 f5 3c fd d4 54 3e 36 e1 7d 3e
       0.21623023 0.030014541 0.20784374 0.24792942
0002d0 2a 42 3a 3e 25 80 85 3e 7a 69 25 be 89 49 72 3e
       0.18189302 0.2607433 -0.16153517 0.23660864
0002e0 44 f7 87 bc 04 96 4b be 9e b3 82 3e 14 6f e5 bd
       -0.016597398 -0.19881445 0.25527662 -0.11202827
0002f0 7c ef 56 be 4c 5d c9 be 8e 51 99 ba 70 74 99 bc
       -0.20989794 -0.39328992 -0.0011697279 -0.01873228
000300 3e 27 bf be 9e f3 5e bd 35 bf b4 3e 7d 3f b6 bd
       -0.37334627 -0.05443155 0.3530213 -0.08898828
000310 1c 16 9e be d3 1b 9c 3e 3b e7 83 be 28 17 43 be
       -0.30876243 0.30489978 -0.25762352 -0.19051802
000320 53 80 72 be 46 d3 7f be 17 05 64 bd 88 de 02 bd
       -0.23681764 -0.24982938 -0.055668917 -0.031950504
000330 af 94 83 be 91 79 24 3e 36 a9 89 3e 7a 73 e4 3d
       -0.25699374 0.16061999 0.2688691 0.11154838
000340 a8 e8 3d bd cf 2c 88 3d 87 fb 81 3e 3c 88 a2 3e
       -0.046364456 0.066491716 0.25387213 0.31744564
000350 33 62 46 bd 8c 64 20 3e cf d6 8a be f3 87 0e 3d
       -0.048433494 0.15663356 -0.2711701 0.03479762
000360 a3 4f 04 3e b7 37 5d be 45 db c3 bd 79 30 a0 be
       0.12921004 -0.21603285 -0.09563307 -0.31286982
000370 68 aa 8c bd 11 90 7a be 6f 37 78 3e 30 5f 3f 3e
       -0.0686844 -0.2446902 0.24239896 0.18688655
000380 93 62 a2 bc d7 d7 5c 3e b4 a5 88 3e 38 4a c1 3d
       -0.019822394 0.21566711 0.2668892 0.09437984
000390 ed f1 23 3e c2 fa 94 bd 69 9e 8c 3e 99 10 7d 3e
       0.16010256 -0.07274391 0.27464607 0.24713363
0003a0 08 0a 97 be 59 99 ab 3e 82 fe 93 3d 75 e8 68 3e
       -0.2949984 0.33515432 0.07226278 0.22744925
0003b0 90 e1 a1 3e 3d e7 41 be 22 e2 20 bd 98 2d b1 3e
       0.31617403 -0.18935867 -0.039278157 0.34605098
0003c0 dc db 70 3e 34 bf ac bd e3 43 0b 3e e9 b2 4c 3e
       0.2352137 -0.084349066 0.13600115 0.19990124
0003d0 df d8 3b bd 8f 5e 97 3e ee 63 69 3e e6 95 e1 3d
       -0.04586112 0.2956433 0.22792026 0.11014919
0003e0 2e 37 25 3e 92 ee 10 be 69 c7 4d 3e d4 ee 06 bd
       0.1613433 -0.14153507 0.200956 -0.032942608
0003f0 0d a2 c9 3d 2b 19 41 be 18 60 9d be b4 71 1d be
       0.09845362 -0.18857257 -0.30737376 -0.15375406

bias f4 [32]
000000 0f 65 17 be 24 d6 1d be d7 a4 95 3c 57 9a dd bc
       -0.14784645 -0.1541372 0.018267078 -0.027051134
000010 6b 3e 87 3d 93 fa ef bd 63 5b 3b 3e 60 5c 88 3e
       0.06603702 -0.11717715 0.1829658 0.26632977
000020 ff 21 8e 3d ba da 8d be a8 b6 2e be 38 c4 28 3e
       0.06940078 -0.27705938 -0.17061865 0.16481102
000030 71 0a 4e be 60 42 92 3e 2e 20 61 bd 21 4d 65 3e
       -0.2012117 0.28566265 -0.05496233 0.22392704
000040 25 52 f8 3d 7b c2 91 be e0 ee 4a 3d 33 e0 42 bd
       0.12125043 -0.2846869 0.049544215 -0.047577094
000050 bf 87 85 be f0 a9 8a be 1e ad ab 3e c8 ef 24 be
       -0.2608013 -0.27082777 0.33530515 -0.16107094
000060 58 cd f6 bc 0e f6 80 be fc 08 de bd b3 81 2f 3e
       -0.030127212 -0.25187725 -0.108415574 0.1713932
000070 c4 95 36 be db 76 58 3e bf 2a 4a 3d d7 26 a6 3e
       -0.17830569 0.2113909 0.049357172 0.32451507

weight f4 [64, 32, 3, 3]
000000 74 dd cb bb 77 4b 14 3d 22 8c 5e bd 38 5c 5f bc
       -0.0062214676 0.03620478 -0.05433286 -0.0136328265
000010 00 18 35 3d 19 88 a1 bc 95 17 66 bc 0d f5 1c 3d
       0.04421234 -0.019718217 -0.014043708 0.038319636
000020 05 bd a6 3d c3 ce 58 bc bf 95 32 bd 61 96 b2 3c
       0.08141521 -0.01323289 -0.04359984 0.021800222
000030 f9 2c 5c 3d ef 12 56 3d 98 29 ad bc cf 3a aa 3b
       0.053753827 0.05226415 -0.021137998 0.005194999
000040 95 5a 59 bd 54 b3 81 3b bb dc 6b bd 71 37 4d 3c
       -0.0530649 0.003958145 -0.05758355 0.012525425
000050 0b 15 50 bd bf 4f a5 3b 49 f6 3c bd 29 d5 d0 3c
       -0.05080132 0.005044907 -0.046133313 0.025492268
000060 b8 30 06 bd 59 76 34 3d a7 d4 88 bc a7 21 8c 3c
       -0.032761306 0.044058178 -0.016702963 0.01710589
000070 60 0d d1 3c 6b b9 51 3d df 80 12 bd 3c a2 29 3d
       0.025519073 0.05120222 -0.035767432 0.041414484
000080 3d af b1 3d f0 77 fa 3c 64 bf a5 3b f5 20 c3 bc
       0.08676002 0.030574769 0.005058216 -0.023819426
000090 e5 2f 28 bd ac ce 89 3d f0 bc b6 3a 8a 09 ae bc
       -0.0410613 0.06728873 0.0013941806 -0.021244783
0000a0 9a ea 96 bb ae cd 09 3d 2a ab dc bc 99 43 1c 3d
       -0.0046056034 0.033643417 -0.026937086 0.038150404
0000b0 d8 b7 3f 3d 46 9e 23 3d d1 b1 e0 3c 40 a9 10 3c
       0.046806186 0.039945863 0.02742854 0.008829415
0000c0 19 58 28 bd f2 ce 91 bc fb f7 13 3d a2 76 41 bd
       -0.04109964 -0.017798875 0.036125164 -0.047232278
0000d0 10 57 28 3d e1 80 c6 bc 55 e9 12 3d ed a0 03 bb
       0.041098654 -0.024231376 0.035867054 -0.0020084933
0000e0 f5 ff da 3c dd a8 1e bd 52 08 fd bc f0 98 f5 bc
       0.026733378 -0.03873526 -0.030887756 -0.029980153
0000f0 c4 d6 08 bd 9f 33 15 bd 57 66 0d 3d 20 d7 aa 3d
       -0.03340794 -0.036426183 0.034521427 0.08341813
000100 13 33 e6 3b 58 b5 8d 3d 3b db 0f bc 59 d0 a6 bc
       0.0070251315 0.06919354 -0.008780296 -0.02036302
000110 5c f4 0b bb cb 0b 2f bc 3b 90 c8 bc 72 74 c1 bb
       -0.0021355366 -0.010683964 -0.024482837 -0.005903774
000120 45 c8 78 bd 91 2d 17 bd 4f e1 9f bc 88 bf 30 bc
       -0.060737867 -0.03690869 -0.019516615 -0.010787852
000130 6c 6d 2e bd 5b 37 9a 3b f9 69 26 bd 3b 99 aa ba
       -0.04258482 0.004706306 -0.040628407 -0.0013015637
000140 a3 25 86 bc 41 cc 83 bd c0 de 43 bd 4a f5 2f bd
       -0.016375368 -0.06435443 -0.047819853 -0.042958535
000150 30 e4 aa 3d d0 58 3f 3d d6 8b 94 3d 82 1a 85 3d
       0.083443046 0.046715558 0.07253234 0.064991966
000160 ea 5d 28 3d 7e a7 c4 bc 9f 1e 19 3d 76 96 66 3d
       0.04110519 -0.024005648 0.03738272 0.056295834
000170 9e eb a6 bc ae f3 ca 3d 91 a2 8b 3d e8 53 07 3e
       -0.020376023 0.099097595 0.068181165 0.13215601
000180 f6 60 2d bc 20 40 17 bd d9 6f ab 3c fb 43 bc bc
       -0.010582199 -0.03692639 0.020927357 -0.022981634
000190 da 2f 98 3d 28 f9 bb bc c4 86 0c bb c2 0b 48 3d
       0.07431002 -0.022945955 -0.0021442631 0.048839338
0001a0 0a ec ae bc 47 b3 2d 3d 21 10 99 3c 82 41 8b 3d
       -0.021352787 0.0424073 0.018684449 0.06799604
0001b0 92 4c ed 3c 8c 31 46 3d 44 13 ff bb dc 2d c7 bc
       0.028967176 0.048387095 -0.007784279 -0.02431386
0001c0 55 7c 71 3d 38 bc 5c bd 19 72 87 3d af dc 71 3d
       0.058956463 -0.053890437 0.06613559 0.05904835
0001d0 c6 8c 96 3d a4 a4 a1 bc 74 43 22 3d b1 89 88 bc
       0.07351069 -0.019731827 0.03961511 -0.016667219
0001e0 66 8c ad 3c 49 6d 61 3d 80 f7 b7 bc a6 64 f0 bc
       0.021185111 0.055035863 -0.022456884 -0.029344868
0001f0 57 0d 22 3c 10 62 04 3b ba 0e 3f bd ec 1f 0b 3b
       0.009890876 0.0020200051 -0.046644904 0.0021228744
000200 f6 a1 ed 3c d4 bf 34 bd 23 e1 8a bc 12 5c 64 bd
       0.029007893 -0.044128254 -0.016953057 -0.055751868
000210 95 20 7f 3c b8 03 1d 3d 73 34 70 bc 76 a5 b7 3c
       0.015571733 0.038333625 -0.014660942 0.022417765
000220 c8 27 7a bc 99 d0 a6 3c 91 14 1a 3d b7 c4 8d bc
       -0.015268274 0.020363139 0.03761727 -0.017305715
000230 b2 75 9b 3d 0b 72 9f 3c f5 e4 9d 3d 49 56 78 3c
       0.07590808 0.01946356 0.07709686 0.015157291
000240 52 ea 24 3d a2 98 96 3c 43 41 13 3d a0 12 1f 3d
       0.040262528 0.018383328 0.03595091 0.03883612
000250 c4 47 ea bb c8 73 42 bd f4 b1 d5 3c 86 8b 3e 3d
       -0.0071496684 -0.0474737 0.026085831 0.04651978
000260 db 08 d3 3c a4 b1 5c 3d 42 b2 71 bc fb d6 15 bc
       0.025761059 0.05388035 -0.014751973 -0.009145494
000270 91 ed 43 3d f0 8f 62 bd a2 af 4b bd 55 bc 02 3c
       0.047833983 -0.05531305 -0.049728043 0.007979472
000280 38 4d f2 3a a4 5c 25 bd 78 39 95 3a fc eb be 3b
       0.0018486148 -0.040371552 0.0011384925 0.0058264714
000290 5e 5a f3 ba 76 cf 64 3d c4 ae ea bc 9d d2 f7 bc
       -0.001856636 0.055861913 -0.028647788 -0.030251795
0002a0 84 8d 26 3d cf 1d f8 3c b2 ab 3f 3c 0c d1 b4 3c
       0.040662304 0.030287651 0.01169865 0.022072338
0002b0 4b 0c 14 bc 1d 77 a1 bc 21 b2 23 3d 0b fe 69 bd
       -0.009036134 -0.019710118 0.0399648 -0.05712704
0002c0 54 45 da 3c 4a 9c 81 bd ea 2d 76 bd 8d 40 d3 bc
       0.026644386 -0.06328638 -0.06010238 -0.025787616
0002d0 04 ae 6a bd 66 d7 10 3d d8 21 33 3d 15 98 3a bd
       -0.05729486 0.03536167 0.043733448 -0.045555193
0002e0 56 b0 7f 3b 80 0b d8 bd a4 f8 82 3d d4 b4 f4 3d
       0.0039015017 -0.105490685 0.06395081 0.11948553
0002f0 09 5f 15 3d d4 56 df 3d fd b0 8d 3d aa f6 9f 3d
       0.036467586 0.10905233 0.069185235 0.07810719
000300 dc 6c a8 3d 98 5d ff 3b 12 c7 2b 3d 14 71 42 3d
       0.08223888 0.0077931397 0.041937895 0.04747112
000310 4a df f4 3c 89 5e d4 3d 8f 97 9a 3c 55 d8 b7 bc
       0.029891629 0.10369594 0.018871097 -0.022442022
000320 e4 d7 28 3c 5c 23 75 3d 6c 89 83 3d 6b aa a4 3d
       0.010305379 0.059848174 0.064226955 0.08040317
000330 7a f8 19 3d 41 7e 98 3d b9 0e 82 3d f3 43 22 bc
       0.03759048 0.07445956 0.063504644 -0.009903896
000340 10 37 09 bd 0f 71 e0 bc 8c 59 92 bd 25 51 05 3d
       -0.033499777 -0.02739766 -0.07145986 0.03254809
000350 de 52 ae bc b5 5f 4d bd 91 35 f4 3c 07 30 57 bb
       -0.021279749 -0.0501401 0.029810699 -0.0032835023
000360 03 b1 09 3c 66 aa 33 3d cb f3 68 bd 8f c6 57 3d
       0.008404019 0.043863676 -0.056873124 0.052679595
000370 ca b6 4b 3d 6a 57 8a 3d 0f 01 51 3d a4 09 43 3d
       0.049734868 0.06754954 0.0510264 0.047616616
000380 3c 52 84 3d da 0f 4b bd d9 14 94 3b d5 5c 5b bb
       0.064609975 -0.049575664 0.004519087 -0.003347208
000390 b5 67 16 3d e3 0f 10 3d d6 d4 0e bd 56 b8 6b bc
       0.036719996 0.0351714 -0.034870945 -0.014387211
0003a0 0b a8 31 3d 78 73 91 bd 14 c7 5b bd de 9d a5 bc
       0.04337315 -0.07102102 -0.053656653 -0.020216879
0003b0 c8 96 7a 3c 55 9c 90 bd e6 ce 9e bb 34 b4 8c bd
       0.015294738 -0.07061068 -0.0048464416 -0.068703085
0003c0 bd 95 9a bc 99 1d ce bb 1a 1c 07 3d b6 b9 30 3d
       -0.018870229 -0.0062901494 0.032985784 0.043145858
0003d0 21 49 01 3d e3 5e 09 bd 6a 01 64 bd f4 0a 3c 3d
       0.03156388 -0.033537757 -0.05566541 0.045908883
0003e0 43 3e 52 3d ca d3 e0 bc 16 c6 8f bb 1b 90 7f 3d
       0.05132891 -0.027444739 -0.0043876274 0.06239329
0003f0 a3 28 44 bc 46 9e cb bc 82 05 7f bd 74 8c 8b 3c
       -0.011972579 -0.024855744 -0.062261112 0.017034747

bias f4 [64]
000000 19 04 9e 3d 52 8f d5 ba f3 e1 50 3d 5a 10 9b 3d
       0.07715625 -0.0016293323 0.050996732 0.07571478
000010 41 c1 9c 3d f6 0e e0 ba 09 77 08 ba c3 cd 51 bd
       0.07654048 -0.0017094302 -0.0005205726 -0.05122162
000020 87 fd ac bc d9 14 f4 bc 28 67 8f 3d d5 1d d2 ba
       -0.021116985 -0.029795097 0.07002097 -0.0016030619
000030 f5 9a 42 3d c9 cb 8e 3d eb 0b 8f 3d ea cb 27 3d
       0.04751106 0.06972463 0.06984695 0.040965952
000040 3b db 64 3d 77 43 29 3c b3 3a 94 3d 8d 2c 19 3c
       0.055873137 0.010331026 0.072377585 0.009349001
000050 66 82 d9 3c ce 36 2b 3d 5e b7 80 ba da 14 af 3d
       0.026551437 0.041800313 -0.0009820273 0.08548899
000060 97 53 b3 3c 40 b9 95 3d 8a f9 58 3d 7c 9d 8f bd
       0.021890445 0.07310724 0.052972354 -0.0701246
000070 c4 4f 64 bb df b4 c0 3b 9d 6b 57 3d 86 11 83 3d
       -0.0034837583 0.0058809365 0.052592862 0.06399827
000080 b8 cb 25 3d 22 a6 2e 3d 22 02 ad 3c f6 ac 59 3c
       0.040477484 0.042638905 0.021119181 0.013285866
000090 a2 b1 68 3d bc 92 31 bc 26 55 13 bb 22 18 85 3c
       0.05681003 -0.010838207 -0.0022481172 0.016246859
0000a0 45 fc 90 3d 00 21 7f bc 0d 22 13 3d bb ff ad bc
       0.070793666 -0.015571833 0.035921145 -0.021240106
0000b0 b8 11 87 bc f1 6b 05 3c c6 c3 55 3d d1 e0 91 3d
       -0.016487941 0.008143411 0.052188657 0.071229585
0000c0 2d 62 cc bc 5a 28 b8 3c bc 5d 47 bd a7 74 02 bd
       -0.024949158 0.022480179 -0.048673376 -0.03184953
0000d0 21 61 38 3d 17 8a 99 bc 4f 07 5f 3d 56 1b 89 3d
       0.045014504 -0.018742604 0.05445033 0.06694667
0000e0 5c bf 1e bd 32 dd 9f bc b3 c3 8a 3c 65 9b ae 3d
       -0.038756713 -0.019514654 0.01693902 0.08525733
0000f0 06 b9 f9 bb 60 7f 62 bd a3 ff fb 3b 91 b3 ab 3d
       -0.0076209335 -0.055297256 0.0076903864 0.08383859

weight f4 [128, 64, 3, 3]
000000 26 dd 3f 3d 40 6c 58 3d f9 53 96 bc f0 60 e4 ba
       0.046841763 0.05283761 -0.018350588 -0.0017423909
000010 d8 7a e8 3b f4 6a 6c ba 6f a9 0d 3d 42 69 04 39
       0.0070947222 -0.0009018623 0.034585413 0.00012627713
000020 87 99 0a 3c 05 79 6e bb eb d5 53 3c 2a 79 6a 3c
       0.008459455 -0.0036388051 0.01292942 0.014311114
000030 be 6e 05 3d 6f eb f0 bc b9 33 78 bc 26 7c 1c bd
       0.032576315 -0.029409138 -0.01514905 -0.038204335
000040 de e8 10 3c dd 74 b5 bc d4 9f eb 3b 7c 77 5c 3d
       0.008844582 -0.022150451 0.007190684 0.053824887
000050 b6 b0 4e 3d f4 f2 1c bc 88 10 5e 3c aa ee 80 bc
       0.050461493 -0.009579409 0.013553746 -0.015738804
000060 dc b5 71 3d 41 bf 11 3d 65 24 a8 bc 8f 9e 3c bc
       0.059011325 0.035582785 -0.020525167 -0.011512413
000070 d8 e8 8a 3c 08 1d af 3c 59 c4 ca 3c 98 9b 20 bd
       0.016956732 0.021376148 0.024751829 -0.039210886
000080 5e e9 13 bd b4 7f 85 bb ed a7 4d bd 9a 33 22 bd
       -0.03611123 -0.0040740613 -0.050208975 -0.039599992
000090 df 16 87 3c ee 6d 9e bb 02 ba 05 bd 9f 06 04 3d
       0.016490398 -0.004834882 -0.032648094 0.032232877
0000a0 fd 1a c7 bc 88 d6 a4 bc 16 f5 92 3c 0e 51 66 bd
       -0.024304861 -0.020121828 0.017939132 -0.056229644
0000b0 a9 d8 68 bc a1 4d 05 3d 58 3c 71 b9 a7 a5 b9 bc
       -0.014211812 0.032544736 -0.00023006031 -0.022661997
0000c0 99 47 a7 3c e5 44 20 3c 7c 1d f2 3b f1 5d db 3c
       0.020419883 0.009782051 0.0073887687 0.026778193
0000d0 6e f4 28 3d ae bc 33 3c 2c dd 88 bc d9 41 9f 3c
       0.04124873 0.010970278 -0.016707025 0.019440578
0000e0 54 5e 4a bd e3 75 2a 3d 47 08 f9 bb cf 4a 04 bd
       -0.049406365 0.04161633 -0.0075998637 -0.032297906
0000f0 aa 47 cb 3c 4c 25 47 bd 6c cf a4 bc 16 70 de bc
       0.024814446 -0.048619553 -0.020118438 -0.027153056
000100 4b a2 29 bd 6c 05 70 bc 16 27 bd bc 38 66 18 bd
       -0.04141454 -0.01464973 -0.023089927 -0.03720686
000110 81 89 23 3d 26 33 7b bc 91 0a 22 bd 00 50 56 3a
       0.039926056 -0.015332019 -0.03956086 0.0008175373
000120 cd e1 de 3c 0f 73 5a 3d c3 ee d4 3c c3 ad e6 3c
       0.02720728 0.053332385 0.025992757 0.028159028
000130 ee 8d 4f 3d 49 14 91 bb 2e 54 1d bc c0 1a d4 3c
       0.050672464 -0.004427467 -0.0096025895 0.025891662
000140 54 f6 be 3b 54 c3 e2 3c d8 0c d1 3c 72 c0 17 3d
       0.0058277044 0.02768103 0.02551882 0.037048765
000150 be 7c 09 3d c3 ef fb 3c 98 dc 24 3d 50 60 90 3c
       0.03356623 0.030753976 0.040249437 0.01762405
000160 a2 0a 8a 39 1e 0f 83 3c a4 31 8b 3c c2 38 de bc
       0.00026329333 0.01599842 0.016991444 -0.027126674
000170 5a 7d 09 bc 45 7f 68 3d 7b d9 1e 3d 3f 60 2a 3c
       -0.008391703 0.056762 0.038781624 0.010398923
000180 ca 72 70 3d a9 bd d7 3c 7f 18 8d bc 85 72 82 3c
       0.05870322 0.026335554 -0.017223595 0.015923748
000190 5a 88 90 3c 54 7c 50 3c 12 7f 3f bc 13 9a 4d 3c
       0.017643142 0.012724955 -0.011688011 0.012548941
0001a0 16 9e 88 bc a9 62 27 3d 6e c8 80 3c 1e 0c f4 3c
       -0.016676944 0.040865574 0.015720572 0.029790934
0001b0 3a 0a e0 bb 22 81 8f ba 13 66 c2 3c ca 34 2c 3d
       -0.0068371566 -0.0010948519 0.023730313 0.04204253
0001c0 3d 66 e2 3c bd 67 e8 3b 04 d7 12 bc c7 ff 11 3d
       0.027636642 0.0070924447 -0.0089623965 0.03564432
0001d0 3c 93 e6 3b e1 25 c0 bb c4 8f 06 bd b3 7a 60 bd
       0.0070365947 -0.0058638905 -0.03285195 -0.054804515
0001e0 b6 ca 5f bc 11 36 44 bd 5f 4a 2a bc 37 d3 a6 3b
       -0.01365917 -0.047903124 -0.010393708 0.0050910967
0001f0 e1 2f aa bc 41 cd db bc 98 44 15 3d dc 7f cb bb
       -0.020774784 -0.026831271 0.03644237 -0.0062103104
000200 9a 30 15 3d d5 e9 0b 3d 7b 9b 1f 3d ad 18 15 3d
       0.036423303 0.034158546 0.038966637 0.036400486
000210 bb 17 31 3d 5c 12 c0 bb 70 9b 0f 3d 41 97 ff bc
       0.04323552 -0.0058615636 0.035060346 -0.031200053
000220 96 93 33 bc 04 1b 0f bc 71 8e 12 3d 33 e6 11 bd
       -0.01096048 -0.008734468 0.035780374 -0.035619926
000230 be be 38 3c cb 87 91 3c bd b5 16 bd 1a a6 fc 3a
       0.011275945 0.017764946 -0.036794413 0.0019275576
000240 49 f2 cf 3c 79 5f c4 bb 00 49 c6 bc 16 3e 01 bc
       0.025384085 -0.0059928265 -0.024204731 -0.007888338
000250 8c c8 ac bc 75 b3 39 3d 0d 04 09 3d 27 3d 6f 3c
       -0.021091722 0.04533716 0.03345113 0.014601982
000260 ae c5 5c 3d 07 bf 1f 3d a4 96 79 3c a9 94 d5 bc
       0.05389946 0.039000537 0.015233669 -0.026071863
000270 08 a7 c2 bb 40 49 3a 3d 33 c5 49 ba 4d 65 95 bc
       -0.005940322 0.045480013 -0.00076969265 -0.01823678
000280 c6 23 8b 3c 2e 5a aa bc 82 7b 8a 3c c4 45 96 ba
       0.016984832 -0.020794954 0.016904596 -0.0011464884
000290 50 bc 29 bc 04 82 26 3d cf 29 4e 3c 4c 7b 52 3b
       -0.010359839 0.040651336 0.01258321 0.0032116948
0002a0 32 ad 49 bb 11 e7 98 bc 6b ec 42 bd 9a ab 35 3d
       -0.0030773398 -0.018664869 -0.047588747 0.044353105
0002b0 2f ad 68 3c cf b7 99 bc e9 09 19 3c f1 69 b9 3c
       0.014201446 -0.018764405 0.009340742 0.022633525
0002c0 47 59 93 3b 48 90 9e bc 94 06 5b bc 29 3c 3b 3d
       0.0044967267 -0.019355908 -0.013368268 0.04571167
0002d0 02 6e 38 3b db 74 f3 3c 39 7b 03 3d 41 f4 48 3d
       0.0028141742 0.029718807 0.032099936 0.049061064
0002e0 bb a1 b6 3c 99 bd 37 3d c7 d2 53 3c 03 da 91 3b
       0.022293916 0.04485855 0.012928671 0.004451038
0002f0 28 bb 94 bc 9a a6 28 3d a9 c2 04 b9 26 ee 66 3c
       -0.01815565 0.04117451 -0.00012661018 0.014094865
000300 63 1e 2f 3d 51 55 dc 3c 6a ff 9d 3b 6f bc 0e bd
       0.04275359 0.02689615 0.0048217075 -0.034847673
000310 75 87 0e bd f3 09 f6 bc 33 7c ab bb 3f 4f 88 3c
       -0.03479715 -0.030034041 -0.0052333116 0.01663935
000320 ba c9 56 bd 4a c5 e6 3c 58 8f 8e bc 63 87 90 3b
       -0.052438475 0.028170247 -0.017402336 0.0044106706
000330 69 f1 ef 3c bf 09 07 bd 46 51 30 bc c2 3b f8 3c
       0.029289918 -0.03296828 -0.010761565 0.030301932
000340 f3 dc b7 3a e4 9f 50 3d f5 5e 9a bc 38 dc d7 bc
       0.001402764 0.050933734 -0.018844107 -0.026350126
000350 59 2e 2a 3d 01 ed 52 3d 17 66 91 bc 53 8d a4 b9
       0.041548107 0.051495556 -0.017748876 -0.00031385812
000360 ac 34 11 39 86 3f a5 bc 15 a5 13 3b 44 e9 ad 3c
       0.000138479 -0.020171892 0.0022528816 0.021229394
000370 ab b1 c3 3c 99 f4 67 bd 60 6c 21 bb b3 a3 be 3b
       0.02388843 -0.05662975 -0.0024631247 0.0058178543
000380 80 55 48 bd 15 b2 72 3b 24 07 87 3c 7f 95 34 bd
       -0.048909664 0.0037032415 0.016482897 -0.044087883
000390 b6 67 65 bb 16 92 08 3d 80 2d 7d ba 69 ba 00 3d
       -0.0035004443 0.033342443 -0.0009657964 0.031427775
0003a0 87 c1 64 bd 6a 9b 12 bd e6 29 8a bc b0 08 e2 bc
       -0.055848625 -0.035792746 -0.016865682 -0.027592033
0003b0 2c 7f 83 3c 70 bf 7e 3c bb bd 2e bb a1 3c ce 3c
       0.016051851 0.015548572 -0.002666338 0.025175394
0003c0 de a7 67 3b 9b 7e 07 3d c1 fd 65 3c b9 f6 c9 bc
       0.003534786 0.033079725 0.01403755 -0.02465378
0003d0 3d cd 47 bc 38 9d 27 bc 2e 12 81 bc 58 db f8 bb
       -0.012194929 -0.010230355 -0.015755739 -0.007594507
0003e0 29 6a 35 3d f1 91 1f bc 47 9c 54 3d f0 7d ca 3c
       0.044290695 -0.009739385 0.05190685 0.024718255
0003f0 ca 9c 08 3d 82 b6 e6 bc 1c 76 46 bd ab 8b 39 bc
       0.03335265 -0.028163198 -0.04845248 -0.011324803

bias f4 [128]
000000 5a 04 52 bc 29 32 cf 3c 6a e1 d1 3c f6 f7 25 3c
       -0.01281842 0.025292473 0.025620181 0.010129919
000010 99 e1 84 3c 4a 5a 67 bd b8 82 f8 bb 3d c8 31 3d
       0.016220855 -0.05648259 -0.0075839423 0.043403853
000020 2a 43 49 bb da e9 4f 3d c6 e6 bd bc 76 8f 95 3d
       -0.00307102 0.050760128 -0.02318133 0.073027536
000030 ff 12 35 3c 1e 79 95 3c 3b 61 c2 bc af 7f c6 bc
       0.011051892 0.01824623 -0.023728004 -0.024230806
000040 6c 22 87 3b 7a da 92 3c 21 7f 04 3d f2 4f 4f 3d
       0.0041239765 0.017926443 0.032347802 0.05061335
000050 c1 5f 01 3d 76 ec 63 3d b3 c3 0a bd a9 7f 2d 3d
       0.03158546 0.05564543 -0.03387804 0.042358074
000060 0c 06 59 3b ca b7 30 bd 4f 8d 1b bc 18 61 8e bc
       0.0033115176 -0.043144025 -0.00949414 -0.017380282
000070 44 97 0a bd 9d 9f b1 3c af 44 89 3d 97 3a ac 3c
       -0.033835664 0.021682555 0.067025535 0.021024032
000080 db fc c9 3b 2f 2c 7a 3a 0a cb 42 3d 8b 8e e7 3c
       0.006164176 0.0009543327 0.047556914 0.028266212
000090 66 10 d7 bc 9f e8 14 3d 4b aa 9e bc 62 3b 57 3d
       -0.026252937 0.036354657 -0.019368311 0.052546866
0000a0 08 70 41 3d ec 6d 15 bd f7 0d e2 3b 53 4d 31 bd
       0.047225982 -0.036481783 0.0068986374 -0.043286633
0000b0 dd ef 36 bd 12 1e e9 3c 7f 39 48 bd 35 e4 9a 3b
       -0.044662345 0.028456721 -0.048882958 0.0047269114
0000c0 8b 4f 79 3d 51 2f 09 3d 08 25 3e 3d 62 8a b4 3b
       0.060866874 0.03349239 0.046422035 0.0055096606
0000d0 f6 5e 30 3b 58 6c 53 3c 63 3f fc bb 58 c4 5a 3c
       0.002691207 0.012904249 -0.007697986 0.013352476
0000e0 c4 8c 8d 3d ff fc 86 bc 2d 80 dd bc 93 06 24 bc
       0.069116145 -0.01647806 -0.027038658 -0.010011333
0000f0 2d ff 9c 3c ff 3d 6a 3d e9 db 25 3d 14 06 f6 3c
       0.019164646 0.05718803 0.040492926 0.030032195
000100 ca 5c b9 3c bc db ff 3b 84 35 67 3d 7c 4d 56 3c
       0.022627253 0.007808177 0.05644752 0.013079997
000110 07 5b d3 3c 76 fb 79 3d 80 96 2e 3c 35 fb 7e 3d
       0.025800241 0.061030827 0.010655999 0.06225129
000120 0b 22 04 bc c1 58 84 3c e0 fb 24 3a df f9 9e bb
       -0.008064757 0.016155602 0.0006293636 -0.0048515643
000130 0c 4d 66 ba 61 00 d5 bb fd c5 4d 3c c6 cf 99 3d
       -0.00087852846 -0.0065002893 0.012559411 0.07510333
000140 71 6b 1f bd 3c a5 12 3d 93 88 31 bc b6 b7 cf bc
       -0.038920823 0.03580211 -0.0108357845 -0.025356155
000150 85 0d 83 3c 27 b0 1d bd a4 d7 05 bd 89 d8 fc bc
       0.015997658 -0.03849807 -0.032676354 -0.03086497
000160 14 42 a3 3c 7e 61 ec 3c 75 7a 4c 3c e2 9e 40 bd
       0.01992897 0.028855082 0.012480368 -0.047026522
000170 74 4d 14 bd 0f 97 81 3d 31 a5 bb bc ce 7d 0f 3d
       -0.036206678 0.0632764 -0.022905918 0.035032086
000180 84 a2 b1 3b 9e 2e e9 3c 2b cf d9 3c a5 1d e3 bc
       0.0054209847 0.028464612 0.026588043 -0.027724097
000190 2d f2 c5 bc 2a 49 e7 3b 06 35 60 3d 4e 40 91 bc
       -0.02416333 0.0070582824 0.054738067 -0.017730858
0001a0 0a b4 0a bd fa 0f 25 bd b2 f6 1d bb 55 01 9c 3c
       -0.033863105 -0.04029844 -0.002410334 0.019043604
0001b0 90 26 3a bd 5e 4d 3c 3d 2d c4 6f 3d 11 07 1d bd
       -0.045446932 0.04597222 0.058536697 -0.038336817
0001c0 26 b6 bb bc 4c df 47 3c 63 57 7b 3b 07 8a 5e bc
       -0.022914004 0.012199234 0.0038351647 -0.013582713
0001d0 52 e3 fe 3c 7d 7f 0c bc aa d3 09 bd a4 92 55 3d
       0.031114254 -0.008575317 -0.033649124 0.0521418
0001e0 42 b4 d0 bc b5 14 3a 3c 89 b2 11 bd 1e 35 52 3c
       -0.025476579 0.011357476 -0.035570655 0.012830047
0001f0 da 7a a9 3c 81 03 7a bb ee 12 e9 bc a8 85 96 3d
       0.020688463 -0.003814906 -0.02845141 0.07349712

weight f4 [128, 64, 3, 3]
000000 ac 41 2c 3d fc d1 b4 bc 0e 30 84 bd 13 d3 a9 3c
       0.042054817 -0.022072785 -0.06454478 0.02073053
000010 70 69 b0 bc 39 af a0 3c e3 76 23 3d 8a c8 33 bb
       -0.021534652 0.019614803 0.0399083 -0.0027432763
000020 e0 36 a1 bc 21 a1 fb 3b 66 69 93 bc 82 b8 2e 3c
       -0.019679487 0.00767912 -0.017994594 0.010664107
000030 6a 57 12 3b 88 8f 0c bc 67 be 4a 3d d2 19 9e 3c
       0.0022329935 -0.008579142 0.049497988 0.019299421
000040 e0 69 18 bd 2c 16 33 bd de b1 e8 bb 7e 48 ba bb
       -0.037210345 -0.043722317 -0.0071012815 -0.0056849113
000050 47 6e 88 bb bf da 9d 3c 15 fa 5c 3d 75 7b ee 3c
       -0.0041635367 0.019269345 0.053949434 0.029111603
000060 5b a2 f0 3c 0a ba 5c 3d 68 d5 3c 3c 3f 11 25 bd
       0.029374292 0.05388836 0.011525489 -0.04029965
000070 ac 74 fe bb 81 5e ac bc c3 60 b4 3c e6 eb 77 3c
       -0.007765373 -0.021041157 0.022018796 0.015131926
000080 28 55 53 bc 11 35 db 3c 71 12 d6 bc d9 46 fa ba
       -0.012898721 0.026758702 -0.02613184 -0.00190946
000090 dc 65 1f 3d f5 12 fc 3c f1 95 48 bc 34 b3 d9 3b
       0.0389155 0.030770758 -0.01224278 0.006643677
0000a0 d1 0e 93 bb 02 c9 ca bc 8f ef 20 3d 2f 69 81 3d
       -0.0044878502 -0.024754051 0.03929096 0.0631889
0000b0 c8 3d c4 bc 39 0f 2a bd e2 e8 1c 3d ff f2 7e 3c
       -0.02395524 -0.041518424 0.03830803 0.0155608645
0000c0 f4 c1 e2 3b dd 42 22 bd 19 5d d7 3b ea de 4e bd
       0.0069200937 -0.039614547 0.0065723774 -0.050505556
0000d0 30 a9 4a bc 6f 83 31 bb e9 53 54 3c fe ea 2e bc
       -0.012369439 -0.0027086397 0.012959459 -0.010676144
0000e0 8f 52 6e bc a8 ce 02 3b ab 69 fe 3a aa 39 4e 3d
       -0.014546051 0.0019959603 0.0019410154 0.05034796
0000f0 3e a2 3d 3d 63 ea 9f 3c 7b d1 0a 3b 92 c7 a9 bb
       0.046297304 0.019520944 0.002118199 -0.0051812613
000100 3d 07 c8 bc 96 07 25 3d 6e 41 98 bc 4b 71 b4 bc
       -0.024417514 0.040290438 -0.018585887 -0.022026679
000110 28 61 03 3d 5b a4 fb bb ba 77 db bb 9a 4f ff bc
       0.032075077 -0.007679505 -0.006697622 -0.031165887
000120 ff 44 8e bc 26 e1 e5 bc 2a 6d c7 bc 50 cf 3b bd
       -0.017366884 -0.02806146 -0.024344046 -0.045852005
000130 77 ec 86 3c cc a2 46 bc 9d f9 81 bb 72 36 12 3d
       0.016470177 -0.012123775 -0.003966524 0.035696454
000140 bf d4 a8 bc 22 60 f8 3b 39 a0 39 3c 55 52 45 bd
       -0.020609258 0.0075798193 0.011329704 -0.04817422
000150 c5 b2 c9 3c 36 a2 2b bc 9a 22 09 bd 81 a9 d5 3b
       0.024621377 -0.010475686 -0.033480264 0.0065204506
000160 f3 1e 93 3b fb 8a 3b bd c5 c7 09 bd 3b 35 a7 bc
       0.0044897734 -0.04578684 -0.03363778 -0.020411124
000170 de a1 df 3b 01 21 19 bd f2 21 48 3c 7c e0 18 bd
       0.006824716 -0.03738499 0.012215124 -0.03732346
000180 f1 49 f8 3c 4a 90 f2 b9 8a 82 6a 3b 2b 5d 81 bb
       0.030308696 -0.0004626534 0.0035783374 -0.003947874
000190 ff 13 73 3d bd 69 18 bd 26 f3 93 bc 1e c6 a6 3b
       0.05934524 -0.037210215 -0.018060278 0.0050895354
0001a0 57 a1 03 3d b7 de ad 3c c6 34 15 3d af d0 8f 3c
       0.032136288 0.021224363 0.03642728 0.017555563
0001b0 19 ca 13 bb 90 e1 e8 3c 31 47 0d bd cc c1 64 bc
       -0.002255088 0.02842787 -0.03449172 -0.01396222
0001c0 a4 01 0d 3c 8a d6 4a 3c 23 f2 0e bd 3f 49 95 3c
       0.008606348 0.012380252 -0.03489889 0.018223403
0001d0 4a 50 a9 3c 36 12 a9 bc a7 38 a9 bb 9e 81 f3 3b
       0.020668168 -0.020638566 -0.005164224 0.007431223
0001e0 1f 81 5c bc b9 a0 b7 bc 27 bf 37 3d a9 8a 4f bb
       -0.013458519 -0.022415506 0.04486003 -0.0031668341
0001f0 00 44 d3 bc 44 fc 29 3d 78 10 e3 bc 22 89 cc 3c
       -0.02578926 0.041500345 -0.027717814 0.024967734
000200 29 82 d6 bc be 56 f2 bb ec 8c 55 bc 47 53 ce 3c
       -0.026185112 -0.0073955944 -0.013034087 0.025186194
000210 c4 38 eb bb a7 07 87 3b 7c 55 58 bc 15 85 fc 3c
       -0.007178398 0.0041207853 -0.013203975 0.030825177
000220 2d 91 47 3d e0 25 a2 bc 93 bf 0d bb 98 de 3e bc
       0.048722435 -0.01979345 -0.002162908 -0.01164975
000230 b1 72 45 3d 6a 54 be 3b 91 8c 9a bc 35 67 34 3c
       0.04820508 0.005808403 -0.018865855 0.011010935
000240 c8 7a 47 3c 12 66 c2 3c b5 de a5 3c cb 57 19 bd
       0.012175269 0.023730312 0.020247797 -0.03743724
000250 5a bc 05 3d a0 ee d1 3c 6b 44 03 bb 05 5f 16 bd
       0.03265033 0.02562648 -0.0020029794 -0.03671171
000260 8a 2c 6f bb 22 09 9b 3c f0 cd 3b bd 79 d0 7d bc
       -0.0036495053 0.018925253 -0.045850694 -0.015491598
000270 c3 4d d7 3c 8a d5 b9 3c 9f 22 32 3d 7d 11 0a bc
       0.026282197 0.022684831 0.04349005 -0.008427021
000280 82 9e fb bc 7d f3 0a 3c d5 e2 04 bd e3 40 81 bb
       -0.03071523 0.008480904 -0.032442886 -0.0039445027
000290 1a db 7e bc ec 43 32 3d f7 eb 87 bb ca 32 2f 3d
       -0.015555168 0.043521807 -0.0041480022 0.042773046
0002a0 ab 7e 2b 3c 8a b0 9c bb 74 63 54 3c 1a a6 b7 3c
       0.010467212 -0.0047817873 0.012963165 0.02241807
0002b0 29 87 3b bd 47 e3 f8 3c f3 09 bc bb a4 45 1c bd
       -0.045783196 0.030381812 -0.0057384907 -0.038152352
0002c0 aa 45 15 bd 35 33 fc 3a f2 51 16 bc 2f 0f 25 bd
       -0.03644339 0.0019241335 -0.009174811 -0.040297683
0002d0 0d 53 2b 3d 59 f4 e5 ba f0 7e 2f 3d f4 e9 cf 3c
       0.04182725 -0.0017544135 0.042845666 0.025380112
0002e0 73 3d 83 bc f2 68 ba 3b f4 f5 12 3c 35 93 a3 3c
       -0.016020512 0.00568878 0.008969773 0.019967655
0002f0 c2 33 7b bc ee aa fa bc ea 7b c4 bc 42 e7 03 3d
       -0.015332164 -0.030599084 -0.023984868 0.032202967
000300 92 6d 11 bd e4 9c ca bb 7a 90 a0 3c 02 b6 a7 bc
       -0.035504885 -0.0061832536 0.019600142 -0.02047253
000310 2a 54 35 3c be 0e 46 bc 3e fe 12 bb a4 f0 ad 3c
       0.01106743 -0.012088476 -0.0022429372 0.02123291
000320 15 3e 41 3d bf ec 27 bd 39 b0 fd 3b dc 5e 3c 3c
       0.047178347 -0.040997263 0.0077419546 0.011497226
000330 60 8a 87 bb f8 73 96 bc a1 ba aa bc 82 6f c3 bc
       -0.0041363686 -0.018365845 -0.020840945 -0.023856882
000340 3a e2 2d 3c 6e 44 23 bd d6 86 c7 bc e1 09 01 3a
       0.010613019 -0.03986018 -0.024356287 0.00049224315
000350 d0 89 e2 bc d1 30 ad bc d5 9a fa bc 14 f2 ce bb
       -0.027653605 -0.021141442 -0.030591408 -0.006315479
000360 04 63 68 3c c2 fe c6 3c 28 0a d7 3b e7 00 e6 ba
       0.014183763 0.0242914 0.00656249 -0.0017547876
000370 ef 78 cc bb 2b c7 c5 bc 1a 77 0f bd 08 e9 df bb
       -0.0062400023 -0.024142822 -0.035025693 -0.0068331994
000380 4e 87 66 3c fa 89 6b 39 c3 0e a0 bc 21 b6 7e bc
       0.014070345 0.00022462747 -0.019538289 -0.015546353
000390 fa 31 07 bc bf f5 0a 3d f9 8f 8c 3a 3e 2b 96 3c
       -0.008251661 0.033925768 0.001072406 0.018331166
0003a0 c8 73 b2 3b 60 0d 3e 3c 6c 88 81 bc e7 68 90 3c
       0.005445931 0.011599869 -0.015812121 0.017628146
0003b0 0b 11 2f 3d 38 89 bf 3c e9 fe f4 bc c5 68 0d bc
       0.042740863 0.02338086 -0.029906707 -0.008630936
0003c0 88 43 82 3c f7 22 03 bd cd 7e d0 3c 6a 12 57 3c
       0.015901342 -0.032015767 0.025451088 0.013126949
0003d0 89 1f 59 bc 2c f1 d5 3b 81 18 b1 3c 36 40 22 bc
       -0.0132521475 0.006528994 0.02161813 -0.009903004
0003e0 ed 74 07 3d 0e a0 92 bc 22 38 57 3c b7 3e 22 bc
       0.033070493 -0.017898586 0.013135942 -0.009902648
0003f0 ac 38 cc 3c ca 12 f8 3c b5 a4 c8 3c c4 25 df 3c
       0.024929367 0.030282397 0.024492601 0.027239688

bias f4 [64]
000000 36 73 c8 bc 26 56 6e bc be 43 ca bb 2c a3 0e bb
       -0.024469 -0.014546907 -0.0061726263 -0.0021764738
000010 b8 12 0b bd 0b 58 8c 3d 0a 74 ae 3c 2d 92 ee bb
       -0.0339534 0.0685273 0.021295566 -0.007280609
000020 e0 ef 47 3d f4 56 0a bc 4f c9 3d 3d ed 71 c3 3a
       0.048812747 -0.008443583 0.04633456 0.0014911272
000030 c3 a1 24 bd dd 24 b2 bc 0b 88 89 bc dc 7b f9 bc
       -0.04019333 -0.021746093 -0.016788503 -0.030454569
000040 e6 c2 3a bd cc ed ab bc 6f 2f 1d bd b3 20 58 bc
       -0.045596026 -0.020987414 -0.038375314 -0.01319139
000050 8d 89 88 bc 00 4e 0d bd bd 46 a5 bc 08 55 02 bb
       -0.016667152 -0.034498215 -0.020175332 -0.0019887108
000060 44 db 62 bc 66 79 11 bd e4 da 65 3d 9f 95 9e bc
       -0.013846222 -0.035516165 0.056116953 -0.019358454
000070 3e 3b 97 3d 2e cd 07 bd 4e 0c 11 bd f1 3c ab ba
       0.073843464 -0.03315466 -0.035412125 -0.0013064427
000080 ed c8 2f 3c 65 0d 65 3d 35 81 0c bd f2 81 26 3d
       0.010729057 0.055920977 -0.03430291 0.04065127
000090 e6 9b 8d bc 93 b2 2b 3d be 72 14 3d 87 5b f8 bc
       -0.017286252 0.04191835 0.03624224 -0.030317081
0000a0 1c e6 d9 3a fe f1 63 bb 39 98 dd 3c 00 73 4b 3c
       0.0016624364 -0.003478169 0.027050124 0.012417555
0000b0 11 48 db bc 72 93 0f bc 32 e5 4f bd de 25 7b 3c
       -0.026767762 -0.008763181 -0.050755687 0.015328852
0000c0 a6 77 fc bb b6 f2 a2 bc 88 91 38 bd 9c 8f 86 b9
       -0.007704693 -0.019891124 -0.045060664 -0.0002566547
0000d0 59 fe 34 bd 48 2e 24 bd c2 21 f8 bc 76 1a a1 3c
       -0.044187877 -0.0400832 -0.030289534 0.019665938
0000e0 52 d2 10 3c 27 6a 0f bd 65 68 0a bb 2d 2d 3f 3d
       0.008839207 -0.035013344 -0.0021119353 0.046673942
0000f0 f0 e6 e6 bc 7e 15 38 3c b6 fe 28 bc 12 79 b2 3c
       -0.028186291 0.011235593 -0.010314634 0.021786246

weight f4 [64, 32, 3, 3]
000000 11 59 e8 3b 71 84 43 3d 31 af 72 3b 2a 85 9c 3d
       0.0070906957 0.047733728 0.0037030692 0.076425865
000010 90 82 1e bc 06 03 88 3d 49 bf 23 bd 0a e5 de bc
       -0.009674683 0.06641202 -0.039977346 -0.027208824
000020 5c 58 9c 3d 10 fd f1 bc e6 e6 8d bc 66 21 1e bc
       0.07634041 -0.029539615 -0.017322015 -0.0096515175
000030 f4 fc 0d bd ee d5 36 bd f8 30 c7 bc f0 eb c6 bb
       -0.034665063 -0.044637613 -0.024315342 -0.0060706064
000040 be 98 ae 3b be e1 3b 3d 38 f1 10 3d f5 6e f9 3c
       0.005328267 0.04586958 0.035386294 0.030448416
000050 fc ec 6f 3c 3c 66 ac bb 7b 9f ee bc 76 44 97 3d
       0.014643904 -0.0052612107 -0.02912878 0.07386105
000060 44 ce 37 bd 1e 0b 80 3d 18 4e f4 bc b2 4d 04 3d
       -0.044874445 0.062521204 -0.029822394 0.03230066
000070 26 54 75 bc 3d 20 ed bc c6 2c 1e bd 20 f4 5c bc
       -0.014973676 -0.028946036 -0.038616918 -0.013485938
000080 68 fb 86 bd 9c 6a 2d bc 95 dc 16 3b b8 a8 08 3d
       -0.06590921 -0.0105845 0.002301966 0.033364028
000090 b4 35 71 3d e5 ee 84 3d b1 30 71 3d d6 ff 12 bc
       0.058889106 0.06490878 0.058884326 -0.008972129
0000a0 27 74 88 bc 7d 10 9f 3b d7 7e f9 3b 04 e1 86 bd
       -0.016656948 0.0048542605 0.0076139974 -0.06585887
0000b0 b7 5b 68 3d 70 da b2 3c 39 c8 f1 bc 33 ff 7a 3c
       0.05672809 0.021832675 -0.029514419 0.015319633
0000c0 26 7b 01 bd 29 88 7c 3c 5d 6a 54 bd e5 81 4f bd
       -0.031611584 0.0154133225 -0.05185925 -0.050660986
0000d0 90 0c 56 3c f6 53 5b bc c4 d0 2f bd aa 1d b2 bc
       0.013064519 -0.013386717 -0.042923704 -0.02174266
0000e0 22 85 82 bb c0 b4 52 bd 09 b8 56 3c 99 c4 4a 3c
       -0.003983156 -0.051441908 0.013105401 0.012375974
0000f0 e2 1f 40 3c 4a 40 fc 3b 90 ba 4a 3c 31 7f 2a 3d
       0.011726351 0.0076980935 0.0123735815 0.041625205
000100 45 0e 32 3c 7b 50 10 bd a8 b8 38 bc 39 94 3d 3c
       0.01086766 -0.035233002 -0.011274494 0.011570984
000110 c6 e8 0a 3d 2e aa c3 3b 84 28 2c bd 97 d7 14 3d
       0.033913396 0.0059712147 -0.042030826 0.036338415
000120 67 55 1b bb f0 fc f8 3c 9f 46 3a 3b 3c e2 63 3c
       -0.0023702027 0.030394047 0.002842344 0.013908919
000130 31 86 2f bd df 79 84 3c 19 5e bc 3c 52 c3 22 3d
       -0.042852584 0.016171394 0.022994088 0.039737053
000140 14 9b c8 3c b0 40 25 3d 33 ab bc bc a2 4a 71 3b
       0.02448801 0.040344894 -0.023030853 0.0036818166
000150 2e 34 fe 3c 95 ab 82 3d ba 61 7d 3d 5a e2 1d 3d
       0.03103074 0.06380383 0.061860777 0.038545944
000160 38 29 9c 3d b1 f1 31 3d 42 78 c2 bc 9d 0e 9b 3c
       0.07625049 0.043443386 -0.023738984 0.018927867
000170 b5 34 5f 3c b8 78 2b bd 4a 32 1d bb f8 de 39 3c
       0.013623406 -0.041863173 -0.0023986273 0.011344664
000180 8a 7d f0 3c 42 84 5e bd ed b2 46 3d 64 33 0b bc
       0.029356737 -0.05432535 0.04851048 -0.008496139
000190 26 06 f7 bc 4c d4 56 3c 26 e4 c0 3c 57 b8 e9 bc
       -0.030154299 0.013112139 0.02354629 -0.028530283
0001a0 4c 55 e5 3b 87 6d 36 bd c7 96 bd 3c 7b 82 15 3d
       0.0069986936 -0.044538047 0.023143185 0.03650139
0001b0 8e 6d 02 3d 57 36 b3 3c af 0d 40 bd 9a 03 8c 3c
       0.03184276 0.021876497 -0.04688805 0.017091561
0001c0 d1 84 08 bd b9 1b 4e 3d b8 0f ec bb 83 37 b5 bc
       -0.03332979 0.050319407 -0.0072040223 -0.022121197
0001d0 3e b3 41 bd e2 5b 89 3d 94 01 fc bc ae c1 92 3d
       -0.04729008 0.067069784 -0.030762471 0.07165848
0001e0 31 03 67 3d 5f ef cf 3c dd f6 e8 3c c2 e3 a5 3d
       0.056399528 0.025382696 0.028438026 0.08100082
0001f0 70 35 a3 3d f0 da 6c 3c 5b 91 cb 3c 6a 2b 4b 3d
       0.07969177 0.014456496 0.024849584 0.04960195
000200 68 48 b0 3c 9f ea 5e bc 44 fc c5 bc a3 e2 70 3c
       0.021518901 -0.013605743 -0.024168141 0.014702472
000210 d2 05 ee 3c 46 ec 8e bd 32 b8 29 bc 6a a3 1b 3c
       0.02905551 -0.06978659 -0.010358857 0.00949941
000220 d8 1f d2 bc 91 53 16 bd 2e c0 4f bd bc 85 cc 3c
       -0.02564995 -0.03670079 -0.050720386 0.024966113
000230 67 e7 95 bc 6d 14 53 bd fb b3 38 3d 84 b4 4e bd
       -0.018298818 -0.05153315 0.045093518 -0.050465122
000240 d1 95 16 3d 9b 12 79 3d 14 3b 0b bd 4d 3e 28 3c
       0.03676397 0.06080876 -0.03399189 0.01026876
000250 02 0b b0 3c fd 49 7c bd 9b 2d 36 3c 32 04 8d 3d
       0.021489624 -0.061594 0.011119272 0.06885566
000260 6d d2 97 bb c3 c2 14 3d 61 9e 87 bd c0 b7 a1 bb
       -0.004633239 0.03631855 -0.06622005 -0.004935235
000270 57 11 d9 3c 34 51 fd 3c e9 b1 13 bd bd 68 39 3d
       0.026497526 0.03092251 -0.03605834 0.0452659
000280 2f e7 12 bd cf 4e 2e 3d cb c4 30 3d 28 34 a7 3c
       -0.035865005 0.042555626 0.043156426 0.020410612
000290 56 bc b2 3c 51 9f 2d bc 2d a1 3c bd 28 11 60 3b
       0.021818321 -0.010597066 -0.046052147 0.0034189913
0002a0 99 4c 18 bd 8e cc 3b bc e3 42 9d bb 02 f5 9d 3d
       -0.037182424 -0.011462344 -0.0047992333 0.07712747
0002b0 80 c3 21 bc d2 9d 4a bc 91 32 8a 3c 62 1f 1e 3d
       -0.009873271 -0.012366729 0.016869815 0.038604148
0002c0 18 af 85 3c 0c 8e 48 bd 42 25 26 3d 1e d5 74 3b
       0.016318843 -0.04896359 0.040562876 0.0037358473
0002d0 72 7d 8c 3d 8c 31 66 3b f8 64 82 3d 21 2b 58 bd
       0.06859864 0.0035124747 0.063669145 -0.052775506
0002e0 25 20 1d 3d 70 0f 65 bb c6 cc ab 3c d4 f4 fc bc
       0.038360734 -0.0034951828 0.020971667 -0.030878462
0002f0 84 2e 85 bd a9 27 1d 3d 76 1f 67 bd 9f 24 dc 3c
       -0.06503013 0.0383679 -0.056426488 0.026872931
000300 af f3 f4 3c 12 27 ad bc 85 7c cb 3c 5f c5 20 3d
       0.029901354 -0.021136794 0.024839649 0.039250728
000310 70 c0 66 3d b2 c1 85 3d f6 d7 60 3a d2 bf 76 bd
       0.056335866 0.06531085 0.00085771026 -0.060241528
000320 a7 6a a2 bd 39 11 c5 bc 39 e9 23 3d 6e a2 90 3c
       -0.079304986 -0.024056064 0.04001734 0.017655578
000330 4f 55 d0 bc f6 01 de bb cd e8 c1 bc a6 8d 9d 3c
       -0.025431303 -0.006775136 -0.023670578 0.019232582
000340 ed f6 93 3d 9f e5 35 bc 45 c3 df bc 7b 9a 3d bd
       0.07224832 -0.011102109 -0.027314791 -0.046289902
000350 eb 29 b0 3c 05 21 14 bd 0c 66 86 3b 71 5d 0c bc
       0.021504363 -0.036164302 0.0041015204 -0.0085672
000360 09 8d 30 bd aa 3a 34 bd 77 23 4e 3d 67 4a 07 3c
       -0.04310325 -0.04400126 0.05032679 0.008257485
000370 eb 9c 54 bd c9 bd f1 3c 72 3a dd 3c 40 18 8b bd
       -0.05190746 0.029509442 0.027005408 -0.06791735
000380 41 2e 2d 3d 33 1e 4c bd da 67 ea 3c 68 66 80 bd
       0.04228044 -0.049833488 0.028613973 -0.062695324
000390 dd e8 8d 3c 35 2c 48 ba ec 61 07 bd f7 0d 3e bd
       0.017322952 -0.0007635982 -0.03305237 -0.046400037
0003a0 e1 7f 9c 3c a4 5f 67 3b d6 8d bb bc 09 e0 ca 3c
       0.019103946 0.003530481 -0.022894781 0.024765031
0003b0 e6 51 e1 3b e5 8c 23 3d 35 c2 97 bd 55 c5 26 bc
       0.006876218 0.03992929 -0.07410089 -0.010178884
0003c0 e3 fb 4a bd bf 4c 87 bd 5d 7f 28 bc 14 68 1b 3d
       -0.049556624 -0.06606435 -0.010284272 0.037941054
0003d0 5d 6f a0 bd c3 77 72 3d e4 7a 46 bc b1 3f fe b9
       -0.07833741 0.059196245 -0.01211426 -0.0004849411
0003e0 8d e3 4a 3b c7 69 f8 3c 1f 08 95 bd 07 67 e3 bc
       0.0030958385 0.030323876 -0.072769396 -0.027759088
0003f0 04 1a 04 3c 75 c8 0b bd ed 6a 8e 3d a8 38 fa 3a
       0.008062843 -0.034126718 0.06953988 0.0019090371

bias f4 [32]
000000 3b 4a 12 bd e0 f4 ab 3d d1 9a 84 3c 0d c7 97 39
       -0.035715323 0.083963156 0.016187103 0.0002894927
000010 51 ea ad 3d 8f 7a 35 bc de 7d 30 3c c6 c0 89 bb
       0.08491958 -0.0110765835 0.010772197 -0.0042038886
000020 9d 9f d0 38 28 ba 80 3d f4 b6 e8 3c 7c aa 73 bd
       9.947943e-05 0.062855065 0.028407551 -0.05948876
000030 2d ff 0b bc 20 92 a9 3d 25 4f b2 bc 8c 0a c4 3c
       -0.008544725 0.08279824 -0.021766255 0.02393081
000040 7a 70 65 3d 5f c9 96 3d 30 05 a2 bc 78 ac 22 bd
       0.05601547 0.07362627 -0.019777864 -0.03971526
000050 e6 67 1c 3d 93 20 c4 bc cb c4 05 bd 25 91 8d 3d
       0.038185023 -0.023941314 -0.03265838 0.0691245
000060 a2 87 40 bc 7b 96 9e bc df fa 83 3d a1 4c b3 bc
       -0.011751087 -0.019358864 0.06444334 -0.021887125
000070 8f 1d ca 3b 01 f0 fa 3c fd c7 64 3d e1 ee 1f 3c
       0.0061680744 0.03063202 0.055854786 0.009761543
